주가 지수 예측 시스템/best_model.pth (torch, 669986 bytes, 17 tensors)

lstm.weight_ih_l0 f4 [256, 64]
0	0x3dc4e8d1	0.09614719
1	0x3c668ba0	0.014071375
2	0xbd0cfa7d	-0.03441857
3	0x3d9faf03	0.07797053
4	0x3c4763db	0.0121698035
5	0x3c8e0b44	0.017339356
6	0xbb422596	-0.0029624454
7	0xbd38c0d1	-0.04510576
8	0xbd9d0bf1	-0.07668293
9	0xbd24a9b4	-0.040200904
10	0x3da41954	0.080126435
11	0x3d356098	0.044281572
12	0xbde8c905	-0.113664664
13	0xbde95642	-0.113934055
14	0xbdd54010	-0.104126096
15	0xbbc1ca40	-0.0059140027
16	0x3ca31dcc	0.01991167
17	0xbdfa1284	-0.12210563
18	0xbcfad384	-0.030618437
19	0xbb3225a9	-0.0027183092
20	0xbd143a83	-0.036188614
21	0x3b003560	0.0019563064
22	0x3b13c9f2	0.0022550789
23	0xbdb2d3e2	-0.0873182
24	0x3dff211b	0.12457486
25	0x3d180b95	0.03712042
26	0x3d9d3591	0.076762326
27	0x3cc39f13	0.023879563
28	0xbddb55c8	-0.10709721
29	0x3bf7666f	0.007550053
30	0xbd58bfa6	-0.052917145
31	0xbdcdb23a	-0.1004376
32	0x3d654b86	0.055980228
33	0xbd7ada52	-0.061243363
34	0x3df78d6c	0.12087521
35	0x3d2c6084	0.042084232
36	0x3c1c879b	0.009553815
37	0x3da7e0fe	0.08197211
38	0x3dba4e01	0.09096909
39	0x3df110c4	0.11770776
40	0x3dd51111	0.10403646
41	0x3df46e6f	0.11935126
42	0x3d5634ad	0.05229633
43	0x3d52aedc	0.05143629
44	0xbd520008	-0.05126956
45	0x3d2491a7	0.040177967
46	0x3daf1021	0.08547998
47	0x3df4c428	0.11951476
48	0x3d94b439	0.07260937
49	0xbd33dc71	-0.0439114
50	0x3d66ac66	0.056316756
51	0x3d9a110c	0.07522783
52	0x3d842c65	0.0645378
53	0xbe00e6f7	-0.12588106
54	0xba101630	-0.000549647
55	0xbd9c5c56	-0.07634799
56	0x3dbf18ed	0.09330926
57	0xbdbfa6f6	-0.09358017
58	0xbdce435e	-0.10071443
59	0xba6af580	-0.0008962974
60	0x3d36009d	0.04443418
61	0x3de2daa8	0.110768616
62	0xbd6543ea	-0.05597297
63	0xbd6c9e16	-0.05776795
64	0x3ce5aad9	0.028035568
65	0x3d8fb95c	0.07017776
66	0x3db62c67	0.08895188
67	0x3dab0f2b	0.083525024
68	0x3deb9493	0.11502948
69	0xbd361375	-0.04445215
70	0x3d926539	0.07148213
71	0xba89782c	-0.0010488085
72	0x3dee0e70	0.116238475
73	0x3de245af	0.11048447
74	0x3c297ff4	0.010345448
75	0x3d3e2a08	0.046426803
76	0xbd4251da	-0.04744134
77	0xb99aa2b4	-0.00029494392
78	0xbda4c687	-0.080456786
79	0x3ca983e6	0.020692777
80	0xbc636200	-0.0138783455
81	0x3d40b750	0.04704982
82	0x3db54500	0.08851051
83	0x3c6c7a6d	0.014433485
84	0xbd45504d	-0.048172284
85	0x3c898f40	0.01679194
86	0x3dbe7d89	0.09301288
87	0x3d9ae7f2	0.07563771
88	0x3dba368a	0.09092434
89	0x3d2f7cb1	0.042843524
90	0x3dcee0d3	0.101014756
91	0x3dfc8502	0.12330057
92	0xbab8f34f	-0.0014110598
93	0x3df073e3	0.11740854
94	0xbdebeea8	-0.115201294
95	0x3db2087d	0.08693025
96	0x3ded60d2	0.11590733
97	0x3bb0d889	0.0053969068
98	0xbd20d01f	-0.03926098
99	0xbdea736e	-0.11447798
100	0x3dd21721	0.10258318
101	0x3d8a588c	0.0675517
102	0xbd2a6c01	-0.041606907
103	0xbda2f757	-0.079573326
104	0xbccb02e2	-0.024781648
105	0x3cf6d493	0.03013066
106	0xbcaf15f6	-0.021372776
107	0x3d1c271d	0.03812324
108	0x3d549568	0.051900297
109	0xbc307ad7	-0.010771475
110	0x3debee75	0.115200914
111	0xbb7038b6	-0.0036654896
112	0x3de652ee	0.11246286
113	0xbd2c083c	-0.04200004
114	0xbd422cc4	-0.047405973
115	0xbd4064ea	-0.04697124
116	0x3dcb21a4	0.09918526
117	0x3d3f11a5	0.046647687
118	0x3d4c5e0c	0.049894378
119	0xbdaad2ed	-0.08341012
120	0x3d46a8b0	0.048500717
121	0xbd946c7c	-0.07247254
122	0x3d109c79	0.035305474
123	0xbba1aff7	-0.0049343067
124	0x3da482e0	0.08032775
125	0x3cb96219	0.022629784
126	0x3de585ed	0.11207185
127	0xbdf472eb	-0.11935981
128	0x3d20de7e	0.039274685
129	0xbd5cc20f	-0.053896006
130	0x3e007715	0.12545426
131	0x3db729b5	0.08943502
132	0x3dbab413	0.09116378
133	0xbcd5bca5	-0.02609093
134	0x3c947171	0.0181205
135	0xbb94014a	-0.004516755
136	0xbd50a8d0	-0.050942242
137	0x3d6c8ad2	0.057749577
138	0x3c5ff6da	0.013669694
139	0x3df5dbe9	0.12004835
140	0x3c80c57e	0.015719172
141	0xbd70b75a	-0.058768608
142	0x3d9dbd6c	0.07702145
143	0xbdac9277	-0.084263735
144	0xbbef9c64	-0.0073123444
145	0xbdf570a8	-0.11984378
146	0xbda6c62d	-0.08143268
147	0x3d6e3ffc	0.05816649
148	0x3cf4b899	0.02987318
149	0x3da8d5cf	0.08243906
150	0x3e015d20	0.1263318
151	0xbd50c810	-0.050972044
152	0x3e01dbb7	0.12681471
153	0x3dddfc11	0.108390935
154	0x3d6d4659	0.057928417
155	0xbda57cd0	-0.08080447
156	0x3cd09cea	0.025465447
157	0x3cfae986	0.03062893
158	0x3dacd886	0.08439736
159	0xbd799d45	-0.060941
160	0x3d98d9f4	0.07463446
161	0x3dd89daf	0.10576951
162	0xbcab3716	-0.02090029
163	0xbdaee53a	-0.08539815
164	0x3da889f1	0.08229435
165	0xbdbd733f	-0.09250497
166	0x3d16d5ff	0.036825176
167	0x3d8c4560	0.0684917
168	0xbdf6fc03	-0.12059786
169	0xbd4d00df	-0.05004966
170	0xbdc07a0e	-0.0939828
171	0x3d58a236	0.05288907
172	0xbd7b9952	-0.061425515
173	0xbc8a2ac3	-0.016866094
174	0xbc89e2ab	-0.016831717
175	0x3db3d161	0.0878017
176	0x3d293bd8	0.041316837
177	0xbd141f0c	-0.03616242
178	0xbcdd8893	-0.027042663
179	0x3d5d9d92	0.05410535
180	0xbd4b1e5c	-0.0495895
181	0xbd222ab0	-0.03959149
182	0x3dab1f58	0.08355588
183	0x3db4b6c6	0.08823924
184	0xbde97605	-0.113994636
185	0xbcd864dc	-0.026415281
186	0x3dcf3704	0.10117915
187	0xbd52800d	-0.05139165
188	0xbaff91b8	-0.0019498384
189	0xba2f6254	-0.0006690372
190	0xbd9e59d3	-0.07731976
191	0xbd2263b9	-0.039645884
192	0x3d873b8f	0.06603157
193	0xbdd9fbca	-0.10643728
194	0xbdd9ec48	-0.1064077
195	0x3d483002	0.04887391
196	0x3df4936a	0.119421795
197	0xbd9d2b51	-0.076742776
198	0xbdbe06f3	-0.09278669
199	0x3d0aa10c	0.033844993
200	0x3d6bf624	0.057607785
201	0xbda7256c	-0.081614345
202	0x3dd367ee	0.103225574
203	0xbdea3d7e	-0.1143751
204	0x3d144997	0.036202993
205	0x3de7906e	0.11306845
206	0x3d8967ce	0.06709252
207	0x3c38275d	0.011239854
208	0x3d8c74e0	0.0685823
209	0x3d9de30f	0.077093236
210	0x3daecfa7	0.085357
211	0xbde48f7c	-0.1116018
212	0x3c9a9e02	0.018874172
213	0x3d4623d2	0.048374005
214	0x3cf2faf1	0.029660674
215	0x3db1d1f6	0.08682625
216	0x3d80363a	0.06260343
217	0xbdf19f12	-0.117979184
218	0xbc57e3ec	-0.013176899
219	0xbdc79211	-0.09744657
220	0xbd6c2c19	-0.057659242
221	0x3d933dd3	0.071895264
222	0x3cb2cfac	0.021827541
223	0xbcbefdbd	-0.023314351
224	0xbbcd60cf	-0.006267644
225	0x3db2b6e4	0.0872629
226	0x3d1f811e	0.038941495
227	0xbd873c95	-0.06603352
228	0x3d4185d3	0.047246765
229	0xbd7fa1b7	-0.062410083
230	0xbc142959	-0.009043061
231	0xbd547a1b	-0.05187426
232	0xbdb37b69	-0.08763773
233	0x3d301d8e	0.042996936
234	0xbdca1469	-0.09867174
235	0xbdfa11dc	-0.12210438
236	0x3c8ae6bc	0.016955726
237	0x3db61bf6	0.08892052
238	0x3db73861	0.089463
239	0x3cca064d	0.024661208
240	0x3ddf2d0d	0.10897265
241	0xbdb25811	-0.087082036
242	0xbd82fe58	-0.063961685
243	0x3cd0535d	0.025430376
244	0xbc9de55f	-0.019274412
245	0xba9a6d08	-0.0011781761
246	0xbcae2b64	-0.021260925
247	0xbd05fd03	-0.032711994
248	0x3d86359e	0.065531954
249	0x3d99a353	0.07501855
250	0xbd66824c	-0.056276605
251	0x3d4bb9c8	0.04973772
252	0x3cd112a1	0.025521578
253	0xbdddc99d	-0.1082947
254	0xbd77c23d	-0.060487974
255	0x3d42c485	0.047550697

lstm.weight_hh_l0 f4 [256, 64]
0	0x3d9962e2	0.074895635
1	0x3deb9879	0.11503691
2	0x3dc5659c	0.09638521
3	0x3db98cf9	0.090600915
4	0xbdac5009	-0.08413703
5	0xbd22fa77	-0.039789643
6	0x3d9c6ddf	0.07638144
7	0x3d80af08	0.062833846
8	0xbd0c4c7c	-0.03425263
9	0xbc81e1d8	-0.015854761
10	0x3d278ff8	0.040908784
11	0x3d8fe038	0.07025188
12	0x3ab86356	0.001406769
13	0xbc4f14f4	-0.012639273
14	0x3d6c6300	0.0577116
15	0xbdb54fee	-0.08853136
16	0x3c0221f2	0.0079426635
17	0xbc409e2e	-0.011756463
18	0x3d4cd3c8	0.050006658
19	0x3d8f4ec3	0.069974445
20	0xbd7b7ce4	-0.0613984
21	0x3d9fe4f7	0.078073435
22	0xbd481028	-0.048843533
23	0x3ce223a5	0.027604887
24	0x3d8d0415	0.06885544
25	0x3def5864	0.11686781
26	0x3dbf1f26	0.09332113
27	0x3dad4838	0.0846104
28	0x3d08ff15	0.03344639
29	0x3d35ecb1	0.04441518
30	0x3cda9556	0.026682537
31	0xbc81b1c7	-0.015831841
32	0xbde3d61b	-0.11124822
33	0xbd98fc37	-0.07469981
34	0x3d94000c	0.072265714
35	0xbd162300	-0.036654472
36	0x3c87c786	0.016574632
37	0xbc71a927	-0.014749802
38	0xbc98f44d	-0.01867118
39	0xbdd998c8	-0.10624844
40	0xbcdc439e	-0.026887711
41	0x3cd9b6a8	0.026576355
42	0xbd1456be	-0.036215536
43	0x3ddbe97c	0.10737893
44	0x3d8c36c5	0.06846384
45	0x3c59b87f	0.013288616
46	0xbd09f239	-0.033678267
47	0x3db35d49	0.08758027
48	0x3d3943fe	0.045230858
49	0x3c1c95e5	0.009557222
50	0xbdf02fa1	-0.117278345
51	0x3d7e94dd	0.062153686
52	0xbc1c3902	-0.009535076
53	0xbcdf4eda	-0.027259279
54	0x3bb74a56	0.0055935783
55	0xbd55046d	-0.052006174
56	0xbdd7a846	-0.105301425
57	0xbda78fbb	-0.08181711
58	0x3d9b4288	0.07581049
59	0xbd826d28	-0.06368476
60	0x3dd501cf	0.104007356
61	0xbd8602a0	-0.065434694
62	0xbe00c59a	-0.12575379
63	0x3de6525b	0.11246177
64	0xbd827df0	-0.06371677
65	0xbd52bec3	-0.051451456
66	0xbdd3260e	-0.10309993
67	0xbc50ea61	-0.012751193
68	0xbd965878	-0.07341093
69	0xbd370cf9	-0.044690106
70	0xbdc1c536	-0.09461443
71	0xbd2d37d8	-0.042289585
72	0x3df4ed3f	0.119593136
73	0x3daf21f8	0.08551401
74	0xbdea0f88	-0.114287436
75	0xbb82d0f0	-0.0039921924
76	0xbbea8280	-0.00715667
77	0xbd5a8e3f	-0.053358313
78	0x3d3128dc	0.043251857
79	0x3dcb71e9	0.09933836
80	0x3d7077cd	0.058708
81	0xbd74cf74	-0.059768155
82	0x3d76d793	0.06026418
83	0x3d6f70bb	0.058457118
84	0x3cd5ebdc	0.026113443
85	0x3bdeba74	0.0067971293
86	0x3d8a02b0	0.06738794
87	0xbb094cea	-0.0020950385
88	0x3d29edc6	0.041486524
89	0x3d9889b8	0.07448143
90	0x3d0dfb17	0.034663286
91	0xbb9bfbf2	-0.004760259
92	0x3d955b53	0.07292809
93	0x3d5f9a5e	0.054590575
94	0x3d4687e0	0.048469424
95	0x3b10aec7	0.0022076832
96	0x3dbb8bc1	0.09157515
97	0x3db2555b	0.087076865
98	0xbe004623	-0.12526755
99	0xbdd0597e	-0.10173319
100	0x3c8e634f	0.017381338
101	0x3bc752f8	0.0060828887
102	0x3c88794b	0.0166594
103	0xbdb93a86	-0.090443656
104	0x3dbd30a9	0.09237797
105	0xbd2e94fa	-0.042622544
106	0x3d7cfd96	0.061765276
107	0xbd9ea87e	-0.07746981
108	0x3d230220	0.03979695
109	0xbd843b58	-0.064566314
110	0xbd8e39a8	-0.06944591
111	0xbb741a62	-0.003724717
112	0xbd83d85d	-0.064377524
113	0x3d8217f3	0.06352224
114	0x3d99e3a5	0.07514123
115	0xbcdeae77	-0.0271828
116	0x3da8434b	0.0821596
117	0x3c8dd80f	0.017314939
118	0x3d7cf345	0.061755437
119	0xbd98a5eb	-0.07453521
120	0xbbaca032	-0.00526812
121	0x3d4363ba	0.04770253
122	0xbd4c7d93	-0.049924444
123	0xbd9cb8f0	-0.076524615
124	0xbddc1f30	-0.10748136
125	0xbdd262b8	-0.10272735
126	0x3dd10abb	0.10207125
127	0x3d82dc4f	0.06389677
128	0x3db945b8	0.09046501
129	0xbd9ce7c0	-0.0766139
130	0x3de902f8	0.11377519
131	0x3d15a876	0.03653761
132	0x3dd7438e	0.10510932
133	0x3c20f3d4	0.009823758
134	0xbd0fbe71	-0.03509373
135	0xbdf435f0	-0.1192435
136	0xbdcb3632	-0.09922446
137	0xbd89aa37	-0.06721919
138	0x3b25458e	0.002521846
139	0xbd709bd6	-0.058742367
140	0xbdaedbf9	-0.0853805
141	0xbda3226e	-0.07965551
142	0xbdf4f03a	-0.11959882
143	0xbdffbd69	-0.12487299
144	0x3c5fb4d3	0.013653952
145	0xbdb126fa	-0.08650012
146	0x3dbcb39a	0.09213944
147	0xbdca57dc	-0.09880039
148	0xbd1acfa3	-0.037795674
149	0x3d7a6b2a	0.061137356
150	0x3c8a758e	0.016901758
151	0xbd0b7e4a	-0.034055986
152	0xbd9186e7	-0.07105809
153	0x3d78189f	0.060570356
154	0x3dbf15af	0.09330308
155	0x3dd2fb0c	0.1030179
156	0xbd1a0a76	-0.037607633
157	0x3daed6fe	0.085371
158	0x3dd67424	0.10471371
159	0x3c90e23d	0.017686004
160	0x3d471e2b	0.048612755
161	0xbd6da7a1	-0.05802119
162	0x3c93b379	0.018029915
163	0x3d8d6e10	0.069057584
164	0x3dac5d90	0.08416283
165	0xbcc7d812	-0.024395023
166	0xbc9baf43	-0.01900447
167	0x3cd0deac	0.025496803
168	0xbcfea0f6	-0.031082612
169	0x3db008af	0.08595406
170	0xbd1be216	-0.03805741
171	0xbdaea7e5	-0.08528117
172	0xbc395a99	-0.011313104
173	0x3db5832c	0.0886291
174	0x3d93c26e	0.07214819
175	0x3d11d3a0	0.035602212
176	0x3cb2c44c	0.021822117
177	0xbce93b3f	-0.028470634
178	0x3dbaa586	0.09113602
179	0x3d487475	0.048939187
180	0xbdc1fb67	-0.09471779
181	0x3d2c5d37	0.042081084
182	0x3dd743a7	0.105109505
183	0xbdd06983	-0.10176375
184	0x3e0475b6	0.12935528
185	0xbdad62a1	-0.084660776
186	0x3ca28d40	0.019842744
187	0xbdab0699	-0.08350868
188	0xbd500fc7	-0.050796296
189	0x3a863e03	0.001024187
190	0xbd9b7af0	-0.07591808
191	0xbd28ddaf	-0.04122704
192	0x3cc23569	0.023707109
193	0x3ca3576a	0.019939143
194	0x3c451999	0.012030029
195	0xbde8ea80	-0.11372852
196	0xbd95b68d	-0.073102094
197	0x3cb22264	0.021744914
198	0x3b79b8f9	0.0038104637
199	0x3da0dbb1	0.07854403
200	0x3de04cf7	0.1095218
201	0xbc91dc2b	-0.01780518
202	0xbdcded5c	-0.10055038
203	0x3d84800a	0.06469734
204	0x3d0ce547	0.034398343
205	0xbd93ca13	-0.07216277
206	0xbd890908	-0.06691176
207	0xbdaf5e34	-0.0856289
208	0xbcff5d96	-0.031172555
209	0x3dc9e3ed	0.098579265
210	0x3d6549e8	0.055978686
211	0xbda7bc37	-0.08190196
212	0xbcfda999	-0.03096466
213	0x3cdb1b13	0.026746308
214	0xbd327e2b	-0.043577354
215	0xbdd49c50	-0.10381377
216	0x3cd78535	0.026308635
217	0xbdc53d5a	-0.096308425
218	0x3d28056f	0.041020807
219	0xbd939733	-0.07206573
220	0x3c04deaa	0.008109728
221	0x3dfff9f8	0.1249885
222	0x3d56b232	0.052416034
223	0x3dcae128	0.099062264
224	0xbd97f2c8	-0.07419354
225	0xbdea1d57	-0.114313774
226	0x3af9f453	0.0019070007
227	0xbe007d3f	-0.12547778
228	0xbccadd22	-0.024763647
229	0x3c5889a2	0.013216408
230	0x3dfdf509	0.12400252
231	0xbdf31786	-0.11869721
232	0x3d5dd110	0.054154456
233	0x3dd8447c	0.10559937
234	0x3be673b6	0.007032837
235	0x3bcfbff0	0.0063400194
236	0x3d1bb29a	0.038012125
237	0xbd634712	-0.0554877
238	0xbdc557e1	-0.09635902
239	0xbd8d8f51	-0.06912101
240	0x3ba73653	0.0051029115
241	0xbd05c47f	-0.032658096
242	0x3d013512	0.031544752
243	0xbd807f9a	-0.06274338
244	0xbdf5ec93	-0.120080136
245	0xbc8f4bf2	-0.017492268
246	0xbd10ad21	-0.03532136
247	0xbcfc5204	-0.030800827
248	0xbde48b5a	-0.11159392
249	0x3d634e12	0.055494376
250	0x3da9cf6c	0.08291516
251	0x3dc8b580	0.098002434
252	0xbd798dc9	-0.060926232
253	0xbdd0e4a0	-0.10199857
254	0xbdf49cb4	-0.11943951
255	0xbd7a6f80	-0.06114149

lstm.bias_ih_l0 f4 [256]
0	0x3d0d11a7	0.034440663
1	0xbd16749f	-0.036732312
2	0xbdbd7a82	-0.09251882
3	0xbcb3bab7	-0.021939619
4	0x3d93ad49	0.07210786
5	0xbde7bb42	-0.113150135
6	0xbd691b44	-0.05691077
7	0xbd99338a	-0.074805334
8	0xbdcd54f1	-0.10025967
9	0x3da978bc	0.082749814
10	0x3dd5c428	0.104378045
11	0xbc9012b2	-0.01758704
12	0x3de66b5e	0.112509474
13	0xbbc6f652	-0.006071844
14	0x3d5d4c20	0.054027677
15	0xbdd2506a	-0.10269244
16	0x3d856865	0.06514052
17	0xbddf58ce	-0.1090561
18	0xbdbffa7e	-0.093739495
19	0x3ce141c0	0.027497172
20	0x3d06b756	0.032889687
21	0xbd6422cf	-0.05569726
22	0x3dd288b3	0.102799796
23	0x3ddb1f20	0.10699296
24	0xbc4282bb	-0.011871989
25	0x3de4e0d8	0.11175698
26	0x3d003d1c	0.03130828
27	0xbce951a9	-0.028481321
28	0x3cc5ddb2	0.024153564
29	0x3d499de3	0.049222838
30	0x3c882da5	0.016623328
31	0x3c13edbc	0.009028848
32	0x3dde43f1	0.108528025
33	0xbdab6b86	-0.08370118
34	0x3dbc3b0f	0.09190952
35	0xbdb5e401	-0.08881379
36	0x3dc049c6	0.09389071
37	0xbc7ca238	-0.015419535
38	0xbcc6d012	-0.024269138
39	0xbdb6a763	-0.08918645
40	0xbcb6408c	-0.022247575
41	0x3da11406	0.07865147
42	0xbd853b34	-0.06505433
43	0xbc8fb78e	-0.01754358
44	0x3d311ab9	0.043238375
45	0xbd955e52	-0.07293381
46	0xbd038a28	-0.032114178
47	0x3cdbe0cc	0.02684059
48	0x3dfd01a1	0.12353826
49	0x3d83e8b6	0.064408705
50	0xbda97d61	-0.08275867
51	0x3d2b9093	0.041885924
52	0x3df4cc93	0.11953082
53	0x3ca47ff6	0.020080548
54	0xbd5ff5f8	-0.054677933
55	0x3c044d9d	0.008075145
56	0xbdcdfcdd	-0.100579955
57	0xbcd2979a	-0.025707055
58	0xbdd4d36d	-0.10391889
59	0xbdd9f5ff	-0.10642623
60	0x3e034e54	0.12822849
61	0x3cb3bba5	0.021940062
62	0xbd962824	-0.07331875
63	0xbbb6ce0c	-0.005578762
64	0xbdd78b84	-0.10524657
65	0xbdf991ff	-0.1218605
66	0xba5ad5dc	-0.00083479076
67	0x3ce8e34d	0.028428698
68	0xbbcd06ab	-0.0062568984
69	0xbd9fb8e7	-0.07798939
70	0x3d166033	0.036712836
71	0x3b8d7662	0.004317091
72	0x3de19a89	0.11015803
73	0xbdc2c51e	-0.09510253
74	0x3dd14fde	0.102203116
75	0xba2c960e	-0.0006583639
76	0x3d697661	0.05699766
77	0xbdd8dd54	-0.1058909
78	0x3dbbf70b	0.09177979
79	0x3d73d859	0.059532497
80	0xbd887661	-0.06663204
81	0x3d06a0ed	0.032868315
82	0xbddfa189	-0.10919482
83	0x3d0de21d	0.034639467
84	0xbd766b05	-0.060160656
85	0x3d30e9df	0.043191787
86	0x3d9f1792	0.077681676
87	0xbce0c1b1	-0.02743611
88	0x3da15f34	0.07879487
89	0x3d507995	0.0508972
90	0xbb955ca8	-0.0045581646
91	0x3d4a26b8	0.04935333
92	0xbd96891c	-0.0735037
93	0xbc06298d	-0.008188617
94	0x3c3377be	0.010953842
95	0xbd9baea0	-0.076016665
96	0xbdfc128b	-0.12308224
97	0x3d01870a	0.031622924
98	0xbd5a3549	-0.053273473
99	0x3bc519ed	0.0060150535
100	0x3d8e62c6	0.06952433
101	0x3c1921a5	0.0093464
102	0xbd25d8d1	-0.040489975
103	0x3cee30e7	0.029076053
104	0xbbe19207	-0.006883863
105	0xbde2ce10	-0.110744596
106	0x3c652c32	0.013987588
107	0xbde2de89	-0.110776015
108	0xbd6e3aba	-0.058161475
109	0xbd21eed4	-0.039534405
110	0xbd4492cb	-0.047991555
111	0xbd14bebd	-0.036314715
112	0xbd2ffeef	-0.042967733
113	0x3dbe14bb	0.09281298
114	0xbda82131	-0.08209456
115	0xbd348a56	-0.04407724
116	0xbc2d91da	-0.010593856
117	0x3d495abd	0.0491588
118	0xbcf0841d	-0.029359872
119	0xbd66ad8e	-0.05631786
120	0x3d5431db	0.05180536
121	0x3e03765a	0.12838116
122	0x3daed2d5	0.08536307
123	0x3d692cd9	0.056927536
124	0x3de4f3f4	0.11179343
125	0xbd55671b	-0.052100282
126	0x3d0804bc	0.03320764
127	0x3e02bf25	0.12768228
128	0x3d8d79a0	0.06907964
129	0xbd7a83f3	-0.061160993
130	0x3cf3cf32	0.029761884
131	0xbd426f7c	-0.0474696
132	0xbd8e8958	-0.0695979
133	0x3d63d201	0.055620197
134	0xbd97428c	-0.0738574
135	0xbdc63d45	-0.09679655
136	0xbd90d9f1	-0.07072819
137	0xbb6656ed	-0.0035147027
138	0x3d295aae	0.041346245
139	0xbdc32469	-0.09528429
140	0x3d16adce	0.036786847
141	0xbd84324c	-0.06454906
142	0xbe018f0c	-0.12652224
143	0xbd28fd57	-0.04125723
144	0x3bffea2a	0.007809897
145	0xbcc85995	-0.024456779
146	0xbd83b6c8	-0.06431347
147	0xbdfbc334	-0.122930914
148	0x3dbb9fb2	0.09161319
149	0xbdaac1a3	-0.083377145
150	0xbbbcb397	-0.0057587135
151	0x3dc2ef4a	0.09518297
152	0xb93952bd	-0.00017673797
153	0x3dc52091	0.09625352
154	0xbc9c9821	-0.01911551
155	0xbca45fac	-0.020065151
156	0x3d88a915	0.06672875
157	0x3c8ff180	0.01757121
158	0xbc2121e9	-0.009834745
159	0xbd9a9a77	-0.07548993
160	0x3d8f3e62	0.069943205
161	0xbd4bfcc5	-0.049801607
162	0x3de50ca5	0.111840524
163	0x3c8869b1	0.01665196
164	0xbdd7853d	-0.1052346
165	0xbddfd36f	-0.10929
166	0xbd9fa1ef	-0.07794558
167	0xbde93335	-0.1138672
168	0xbc65ca12	-0.014025228
169	0xbd83c425	-0.06433896
170	0x3dd8b866	0.10582046
171	0x3d264938	0.04059717
172	0xbcf8f4b9	-0.03039013
173	0xbd1f726f	-0.03892749
174	0xbd9d149b	-0.07669946
175	0xbbcf3fd1	-0.006324746
176	0xbcc6e7af	-0.024280397
177	0x3de136d3	0.10996785
178	0x3db4f79a	0.08836289
179	0x3d526a88	0.051371127
180	0xbbe99342	-0.00712815
181	0x3ddd82d9	0.10815973
182	0xbdc8a4c4	-0.097970515
183	0xbd80d479	-0.06290526
184	0x3ce61764	0.028087325
185	0x3c8a8128	0.01690729
186	0x3d3a9f01	0.045561794
187	0xbd1f8e87	-0.038954284
188	0x3db84a8e	0.08998595
189	0xbd080618	-0.033208936
190	0xbdca775f	-0.098860495
191	0x3dc6b3c7	0.097022586
192	0x3d54bf1b	0.051940065
193	0xbdb9766f	-0.090557925
194	0x3d433f12	0.04766757
195	0x3ddf33aa	0.10898526
196	0x3d1b756b	0.037953775
197	0xbdbb99dd	-0.091602065
198	0xbc88f6f1	-0.016719313
199	0xbd56c4bd	-0.052433718
200	0x3b088cc8	0.0020835865
201	0xbccd00a2	-0.025024716
202	0xbdaf0af2	-0.085470095
203	0xbddf6bb2	-0.10909213
204	0xbd54b566	-0.051930808
205	0xbde94301	-0.11389733
206	0x3d88a5a6	0.0667222
207	0x3d4be981	0.049783234
208	0xbdcfe8ba	-0.10151811
209	0x3dcaecc6	0.09908442
210	0x3c99cb51	0.018773707
211	0x3da4e694	0.08051792
212	0xbd622b20	-0.05521691
213	0xbda485cd	-0.08033333
214	0x3dea72cf	0.11447679
215	0xbce5c03c	-0.028045766
216	0xbcfeab33	-0.031087494
217	0xbd910d86	-0.070826575
218	0x3dc6a9bc	0.09700343
219	0x3d009e82	0.031401165
220	0x3d825af9	0.06365008
221	0x3be70308	0.007049922
222	0xbdde60ce	-0.10858308
223	0xbc065445	-0.008198802
224	0x3c863c8e	0.016386297
225	0x3db6ae16	0.08919923
226	0x3cd335f9	0.025782572
227	0x3d5196fc	0.05116938
228	0x3cc50b2e	0.024053182
229	0x3dc76edc	0.097379416
230	0x3c50784f	0.012723996
231	0xba9b580a	-0.0011851799
232	0xbcbd19f1	-0.023083659
233	0x3e03f2d3	0.12885599
234	0x3da2d5d2	0.07950939
235	0xbd1a6e36	-0.03770276
236	0x3dae53be	0.08512066
237	0xbd2e0852	-0.042488404
238	0x3d07875e	0.03308808
239	0xbdc237bf	-0.09483289
240	0x3d55b6d4	0.05217631
241	0x3d64493c	0.055733904
242	0xbb73df08	-0.0037211794
243	0x3d058409	0.03259662
244	0x3d41139b	0.047137838
245	0x3d8b8ebe	0.06814335
246	0xbcdb4bb1	-0.02676949
247	0x3df412ec	0.119176716
248	0xbdb3c5cb	-0.087779604
249	0xbc0b9920	-0.008520395
250	0x3cc9f234	0.024651624
251	0x3d1ad7cf	0.037803467
252	0x3dd82d8c	0.105555624
253	0x3ddc76db	0.107648574
254	0xbcc48325	-0.023988316
255	0x3c436308	0.011925466

lstm.bias_hh_l0 f4 [256]
0	0xbda879f6	-0.08226387
1	0xbc48b6fd	-0.012250659
2	0x3d2353bf	0.03987479
3	0x3d0d79cc	0.034539983
4	0xbdbeabc7	-0.09310108
5	0xbddc69a8	-0.1076234
6	0x3c5bc94c	0.013414692
7	0xbd0dcbe2	-0.034618266
8	0x3d4eb747	0.050467756
9	0xbdd4cbec	-0.103904575
10	0x3dc7b796	0.09751813
11	0x3d880d9d	0.066432215
12	0xbdc811f2	-0.09769048
13	0x3c8d8e23	0.01727969
14	0x3de1fd70	0.110346675
15	0x3dbe3146	0.09286742
16	0xbdd38ca9	-0.10329563
17	0xbd42b280	-0.047533512
18	0x3d98558e	0.07438193
19	0x3de27f9f	0.11059498
20	0x3da32ecb	0.079679094
21	0x3c052bc2	0.008128108
22	0x3c2a37fb	0.010389323
23	0x3d27cd05	0.040967006
24	0x3da67d9f	0.08129429
25	0xbd768460	-0.060184836
26	0x3dece5a5	0.11567239
27	0xbd7635a0	-0.060109735
28	0xbde7805e	-0.11303781
29	0x3d3479a3	0.044061314
30	0xbd4f2b02	-0.050578125
31	0xbd8c3d6e	-0.06847654
32	0x3da8b177	0.08236974
33	0x3c5a00b4	0.013305832
34	0x3d993d3b	0.07482382
35	0x3d7491ce	0.059709363
36	0x3ce5a8c9	0.028034585
37	0xbcfca97c	-0.030842535
38	0xbd3c40f7	-0.045960393
39	0xbde09583	-0.10966017
40	0xbde5066f	-0.11182868
41	0xbd01067e	-0.031500332
42	0x3d59c4ad	0.05316608
43	0xbd458d83	-0.04823066
44	0xbcdd81bd	-0.027039403
45	0x3ce85e84	0.028365381
46	0x3da65efb	0.08123585
47	0x3dafdff6	0.08587639
48	0x3dd0f725	0.10203389
49	0xbd305050	-0.043045342
50	0x3da818e5	0.08207873
51	0x3c1415c3	0.0090383915
52	0xbb1d47a0	-0.002399899
53	0xbd3ec72e	-0.04657667
54	0x3cdada30	0.026715368
55	0x3d73e6e8	0.05954638
56	0xbd7d1cc6	-0.06179502
57	0x3df06de8	0.11739713
58	0x3d4b7141	0.049668554
59	0xbdb6c355	-0.089239754
60	0xbcad64f4	-0.021166302
61	0xbdb6e6f1	-0.08930767
62	0x3de74234	0.11291924
63	0x3d90b11e	0.070650324
64	0xbc5b7a16	-0.013395807
65	0x3d86d1cf	0.065829866
66	0x3c71b332	0.014752196
67	0x3da7b0d4	0.08188024
68	0xbdd309ab	-0.103045784
69	0xbd790ea2	-0.06080497
70	0xbc3a9f27	-0.011390484
71	0xbd51d768	-0.051230818
72	0x3d8e0a1d	0.06935523
73	0xbc74d8c6	-0.014944261
74	0x3da28f82	0.07937528
75	0xbc05b821	-0.0081615755
76	0xbd0d7403	-0.034534466
77	0x3db32fee	0.08749376
78	0x3df0ad8f	0.11751854
79	0x3dc0f456	0.094216034
80	0xbda4f763	-0.08054998
81	0x3d7d88a8	0.061897904
82	0xbcc26ba8	-0.023732975
83	0x3d5bc139	0.05365107
84	0xbd597fe5	-0.053100485
85	0xbd92b495	-0.071633495
86	0xbdba3e4c	-0.090939134
87	0xbd4e64d9	-0.050389145
88	0xbdbf7fb0	-0.09350526
89	0x3c4a6ea6	0.012355482
90	0x3e00e95d	0.12589021
91	0x3d1cd110	0.038285315
92	0xbdfd0354	-0.123541504
93	0xbd6c5eb7	-0.057707515
94	0xbdabb7ee	-0.08384691
95	0x3d5796f0	0.05263418
96	0xbdd7afed	-0.10531602
97	0x3d90029c	0.07031748
98	0x3d3ca103	0.04605199
99	0x3ca896bb	0.020579686
100	0x3bfe07b5	0.0077523836
101	0xbddd9124	-0.10818699
102	0xbdca30e8	-0.098726094
103	0xbdd327b2	-0.10310306
104	0xbdf30bc2	-0.11867477
105	0x3d934eba	0.0719275
106	0x3dd5031d	0.104009844
107	0x3db8e919	0.09028835
108	0xbc1faf16	-0.009746334
109	0xbcd5b20f	-0.026085882
110	0xbdef94e8	-0.116983235
111	0x3b7aac6b	0.0038249742
112	0xbd91de6f	-0.07122504
113	0xbb8d03c4	-0.0043034274
114	0xbd74b8fb	-0.059746724
115	0xbd337a26	-0.04381766
116	0x3c3205a6	0.0108656045
117	0x3aa6e236	0.0012732211
118	0x3d05fd9c	0.032712564
119	0x3cee11bc	0.02906119
120	0xbd5bf6a5	-0.053702015
121	0x3c69c45a	0.014268005
122	0xbdaa806f	-0.08325278
123	0x3ddc96d4	0.10770956
124	0x3dfb7830	0.12278783
125	0xbd1127fb	-0.03543852
126	0x3d81083b	0.06300398
127	0x3bc11570	0.005892448
128	0x3d820656	0.06348865
129	0xbdef673b	-0.116896115
130	0xbca32526	-0.019915175
131	0x3cdc95d1	0.026926907
132	0xbd888ff2	-0.066680804
133	0x3d6986b5	0.057013232
134	0x3da12100	0.078676224
135	0xbd9091d7	-0.07059067
136	0xbd387bcd	-0.04503994
137	0xbde98203	-0.11401751
138	0xbcbc323b	-0.02297317
139	0xbd079635	-0.033102233
140	0x3de94761	0.113905676
141	0x3de1ffd9	0.11035127
142	0xbd838577	-0.06421941
143	0x3de0d963	0.10978963
144	0xbcf5b05e	-0.029991325
145	0xbcccf985	-0.025021324
146	0xbd8b9934	-0.068163306
147	0x3cc2c7ac	0.023776852
148	0xbd8121e0	-0.06305289
149	0x3dee1d73	0.11626711
150	0x3d50e3b8	0.05099842
151	0x3dc416d0	0.09574664
152	0xbda80846	-0.08204703
153	0xbdb2436f	-0.08704268
154	0xbc08cc15	-0.008349438
155	0xbca5582c	-0.020183645
156	0x3d85ee89	0.065396376
157	0x3de6eed7	0.11276024
158	0xbd33ccf7	-0.04389664
159	0x3df55a21	0.11980081
160	0xbdea71dc	-0.11447498
161	0xbc810309	-0.015748518
162	0xbd3bcae9	-0.045847807
163	0xbd6b4f18	-0.057448477
164	0xbdff268b	-0.12458523
165	0x3df18043	0.11792042
166	0x3d8d8d91	0.06911767
167	0xbdd63a89	-0.104603834
168	0x3d366550	0.044530213
169	0xbd87a904	-0.06624034
170	0x3c081a60	0.00830707
171	0xbc390024	-0.011291537
172	0x3dbfa01a	0.09356709
173	0xbde5c5c0	-0.112193584
174	0x3d1618a8	0.036644608
175	0xbd9153b3	-0.070960425
176	0x3dc88f14	0.09792915
177	0xbdef691b	-0.11689969
178	0xbd7ea5c3	-0.0621698
179	0x3da43a90	0.080189824
180	0xbc34dc51	-0.011038856
181	0xbc56cf61	-0.013110966
182	0x3dfb8172	0.12280549
183	0xbc2f60bb	-0.010704215
184	0xbd8c4988	-0.068499625
185	0xbdfea0fc	-0.12433049
186	0xbd24dbc7	-0.04024866
187	0x3da779a0	0.08177495
188	0x3ca08390	0.019593984
189	0xbbb6c4db	-0.005577666
190	0xbdbf8827	-0.09352141
191	0x3d8dc35f	0.0692203
192	0xbd8335c9	-0.06406743
193	0xbc85babc	-0.016324393
194	0xbd8a6d54	-0.06759134
195	0xbd9d294a	-0.07673891
196	0xbcbfb88b	-0.023403427
197	0xbde597f3	-0.11210623
198	0xbde6342f	-0.11240422
199	0x3bb824b8	0.0056196116
200	0x3dfe053f	0.12403344
201	0xbde6e8dc	-0.11274883
202	0x3dcb17f0	0.09916675
203	0xbd162159	-0.036652897
204	0xbdf22653	-0.11823716
205	0x3b3b6b92	0.0028598052
206	0x3df472b4	0.119359404
207	0x3d9a0afb	0.075216256
208	0x3d7f7f3f	0.06237721
209	0x3bf88a9d	0.0075848834
210	0xbd869ed4	-0.06573263
211	0x3dbbad34	0.09163895
212	0xbdbf50d8	-0.093415916
213	0x3d9bdbd1	0.07610286
214	0xbd698148	-0.057008058
215	0xbc8c1fec	-0.017105065
216	0x3bcda451	0.0062756916
217	0x3ded496e	0.11586271
218	0x3dcb24e6	0.09919147
219	0x3dd1c875	0.10243312
220	0x3d69ffba	0.057128645
221	0x3d9badb0	0.07601488
222	0xbd7305aa	-0.059331574
223	0xb9a4c6b5	-0.00031428566
224	0x3cc34d56	0.023840588
225	0xbde1fcbe	-0.11034535
226	0x3d49f250	0.049303353
227	0xbd91e808	-0.071243346
228	0xbd3dd2d9	-0.046343658
229	0xbd468e30	-0.048475444
230	0x3d9377cc	0.07200584
231	0xbd3fe180	-0.046845913
232	0xbda11120	-0.078645945
233	0x3da47d95	0.08031765
234	0xbdd6567c	-0.10465714
235	0x3ddaa631	0.1067623
236	0x3cbb18a0	0.02283889
237	0x3dccce61	0.10000301
238	0xbdd650bc	-0.104646176
239	0x3d9109c1	0.070819385
240	0x3d1f82c8	0.038943082
241	0xbdcd3c8f	-0.10021316
242	0xbdd59ba6	-0.10430078
243	0xbdadd180	-0.084872246
244	0xbcb8618a	-0.022507448
245	0xbdbd4e74	-0.09243479
246	0x3d0f67a7	0.03501096
247	0xbdfe718b	-0.12424
248	0xbca3d33f	-0.01999819
249	0xbdf5adf8	-0.119960725
250	0xbd01f2a1	-0.03172553
251	0x3dc29275	0.09500591
252	0xbd733d0d	-0.059384394
253	0xbc15258d	-0.009103191
254	0xbd80e01b	-0.06292745
255	0xbdbb1c60	-0.091362715

lstm.weight_ih_l0_reverse f4 [256, 64]
0	0x3dd2c970	0.102923274
1	0x3d47c24f	0.04876929
2	0xbbf2bf4e	-0.007408059
3	0x3d33ae3c	0.043867335
4	0x3dc1b635	0.09458581
5	0x3dbf6a89	0.09346492
6	0x3ddce399	0.10785598
7	0x3d8b47cd	0.06800804
8	0x3dc0fba8	0.094229996
9	0xbcd2cd21	-0.025732579
10	0x3ba57e8b	0.0050504855
11	0xbdbc26be	-0.09187077
12	0xbd827e0a	-0.06371696
13	0x3c02d946	0.007986372
14	0xbcc60460	-0.024172008
15	0x3db4f3a8	0.08835536
16	0xbdf46b11	-0.11934484
17	0x3a59517e	0.00082900363
18	0xbda5023e	-0.08057068
19	0xbc9430fe	-0.018089768
20	0x3d8bec13	0.06832137
21	0xbce2351b	-0.027613213
22	0x3c41ecdc	0.011836257
23	0x3cb31d5c	0.021864586
24	0xbddefff7	-0.10888665
25	0x3e01943c	0.12654203
26	0xbdd9fde6	-0.106441304
27	0xbd179daf	-0.037015613
28	0x3d96d33f	0.07364511
29	0xbdf0613c	-0.11737296
30	0x3c7957f7	0.015218726
31	0xbdd91aaf	-0.106007926
32	0x3d709f8b	0.058745902
33	0x3b983705	0.0046452307
34	0x3d0981d0	0.033571064
35	0x3de5e56d	0.112254
36	0x3cca3262	0.024682228
37	0x3dcdb107	0.10043531
38	0xbdbb4e7d	-0.0914583
39	0xbb401a4d	-0.0029312551
40	0xbddeb317	-0.108740024
41	0xbdb8a8a6	-0.09016542
42	0x3def2ae8	0.116781056
43	0x3d76b9fa	0.060235955
44	0xbdbc2745	-0.091871776
45	0xbbeb4c4c	-0.007180726
46	0xbde8960c	-0.11356744
47	0x3dac110e	0.084016904
48	0x3cc98d12	0.0246034
49	0x3d118e05	0.03553583
50	0x3df74fc3	0.1207576
51	0x3b018474	0.0019762786
52	0x3cef1a9a	0.02918749
53	0xbdf1c7ef	-0.118057124
54	0xbdb79de4	-0.08965662
55	0xbd122b1a	-0.035685636
56	0x3db1ffbc	0.086913556
57	0x3c63dd16	0.013907691
58	0x3d870956	0.065935776
59	0xbd76f350	-0.060290635
60	0x3c8a6b81	0.016896965
61	0xbda2dddc	-0.079524726
62	0x3c84e646	0.016223084
63	0xbdb52fc8	-0.08847004
64	0xbd8e8438	-0.069588125
65	0x3d9ef1ae	0.077609405
66	0xbd1e39b6	-0.038629256
67	0xbc12f839	-0.008970314
68	0x3da5a294	0.0808765
69	0x3def1e27	0.11675673
70	0x3cd42ba0	0.025899708
71	0x3d9cd1d3	0.07657208
72	0x3d90c9d9	0.070697494
73	0xbcfccb9d	-0.03085881
74	0xbd34e358	-0.044162124
75	0x3db5bba1	0.08873678
76	0xbc6a6371	-0.014305935
77	0xbd41f7d1	-0.047355477
78	0x3d8e980a	0.06962593
79	0xbd58d9a1	-0.052941922
80	0x3dd3958b	0.103312574
81	0x3de0254e	0.10944615
82	0xbbfb445e	-0.007668062
83	0xbdf12523	-0.117746614
84	0xbcb26ef0	-0.021781415
85	0x3cada127	0.021195007
86	0xbde6fc04	-0.11278537
87	0xbb970f8a	-0.0046100067
88	0x3d10f99a	0.03539429
89	0x3d6b0dd0	0.05738622
90	0x3d4d16a6	0.050070427
91	0xbd059d1e	-0.03262054
92	0xbd96a9c0	-0.07356596
93	0xbdeb8ad0	-0.11501086
94	0x3d85d46e	0.06534658
95	0xbc3d71ac	-0.011562746
96	0x3d56f22b	0.052477043
97	0x3d41944b	0.047260564
98	0x3cc725d1	0.024310024
99	0xbdb130a5	-0.08651856
100	0xbda1023e	-0.07861756
101	0x3cd91b7c	0.026502363
102	0xbddeb02a	-0.108734444
103	0xbd6d8a61	-0.057993297
104	0xbdbfdeb5	-0.0936865
105	0xbd2c6965	-0.0420927
106	0x3d07769e	0.033072107
107	0xbdd2f531	-0.10300673
108	0x3dcddd6d	0.10051999
109	0x3d7e0b5a	0.062022544
110	0x3db9ac58	0.09066075
111	0x3b49c7ea	0.0030789324
112	0x3c1f64fc	0.009728666
113	0xbd145650	-0.036215127
114	0xbdcdd959	-0.100512214
115	0x3daafcba	0.08348985
116	0x3dce484d	0.10072384
117	0xbdcd7a0e	-0.10033046
118	0xbdbc0f52	-0.091826096
119	0xbcf13ca4	-0.029447861
120	0xbd58f3f4	-0.052967027
121	0xbd8c76ea	-0.068586186
122	0xbdf3ee12	-0.11910643
123	0xbda65dd1	-0.08123363
124	0xbbc45c84	-0.005992474
125	0x3d0409c1	0.032235865
126	0x3c1048e3	0.00880644
127	0x3dd5b11b	0.10434171
128	0xbe0190cb	-0.1265289
129	0xbd86b415	-0.06577317
130	0x3ccaed7c	0.024771444
131	0x3cdf1805	0.027233133
132	0x3dd437a0	0.10362172
133	0x3bf25f12	0.007396587
134	0xbde996a3	-0.11405685
135	0x3de7192f	0.112841
136	0x3d4c8039	0.04992697
137	0xbc990c59	-0.018682646
138	0xbd5da8fa	-0.054116227
139	0x3dbedd33	0.09319534
140	0x3a2f5114	0.0006687802
141	0xbd782146	-0.060578607
142	0xbd311abe	-0.043238394
143	0x3c88e6bc	0.016711585
144	0xbdeb8c10	-0.11501324
145	0x3c8533d6	0.016260069
146	0x3dbba646	0.091625735
147	0xbdd3d55d	-0.1034343
148	0xbdd95a56	-0.10612933
149	0x3da80cc0	0.08205557
150	0x3d986b2f	0.07442319
151	0xbdaf3a6d	-0.08556066
152	0xbdbc3b0c	-0.0919095
153	0xbc51509c	-0.012775566
154	0x3d03b06a	0.032150663
155	0x3d653825	0.055961747
156	0xbd1e1d71	-0.038602296
157	0xbdfbbee8	-0.12292272
158	0xbde916c5	-0.11381296
159	0x3b766a0f	0.0037599837
160	0xbd47ce8c	-0.048780963
161	0x3c04c77e	0.008104203
162	0x3bd55a2a	0.0065109925
163	0xbdfe3f0d	-0.1241437
164	0xbdffd7ee	-0.12492357
165	0xbbc809d2	-0.0061046863
166	0xbbcbad5e	-0.0062157353
167	0x3d49064e	0.04907828
168	0x3ca9b651	0.020716818
169	0x3d72a019	0.059234712
170	0xbd1862f4	-0.037203744
171	0x3c2b5b05	0.0104587125
172	0xbdabbb60	-0.08385348
173	0xbd9db32b	-0.07700189
174	0xbdc47518	-0.09592646
175	0x3dd3fcd3	0.10350957
176	0x3db0d813	0.08634963
177	0xbc3ae7d8	-0.011407815
178	0xbdb9cab4	-0.09071866
179	0xbc72fb00	-0.014830351
180	0xbbc5435e	-0.0060199937
181	0x3dc171d7	0.09445541
182	0xbde35801	-0.1110077
183	0x3d989c8d	0.07451735
184	0x3d673918	0.056450933
185	0x3dec25bd	0.115306355
186	0xbd6852e2	-0.05671967
187	0xbd83781d	-0.06419394
188	0xbc4fa7d9	-0.012674295
189	0xbdd3adfb	-0.103359185
190	0x3d821665	0.06351928
191	0xbdebead3	-0.115193985
192	0xbd761767	-0.060080912
193	0xbb287654	-0.0025705295
194	0x3d944050	0.07238829
195	0xbcbf0afb	-0.023320666
196	0x3d8168e1	0.06318832
197	0xbdde2fce	-0.10848962
198	0xbd97a281	-0.07404042
199	0xbbca003f	-0.00616458
200	0x3cbcfbe7	0.023069335
201	0xbc1dff6f	-0.00964342
202	0xbdeba15b	-0.115053855
203	0x3d566bfd	0.05234908
204	0xbdf27583	-0.1183882
205	0x3c1c5526	0.009541785
206	0xbdf40cf2	-0.119165316
207	0xbdc6b639	-0.09702725
208	0x3ca44038	0.020050153
209	0xbdb680eb	-0.08911308
210	0x3d07dc41	0.033169035
211	0x3cec9421	0.028879227
212	0xbd9542b2	-0.07288112
213	0x3d8af9a7	0.06785899
214	0x3debb796	0.115096256
215	0xbdc86862	-0.097855344
216	0x3dc2202e	0.09478794
217	0xbdaeafd0	-0.08529627
218	0xbdfc99fd	-0.123340584
219	0x3d8ff9fc	0.070301026
220	0xbd629fc5	-0.05532815
221	0x3b0d5dc9	0.0021570793
222	0x3db6f462	0.08933331
223	0x3d69077d	0.056891907
224	0x3c2e82e9	0.010651329
225	0x3d2c50db	0.042069297
226	0xbd5f9fc3	-0.05459572
227	0xbd83d513	-0.06437125
228	0xbd57309a	-0.052536584
229	0x3d92adbc	0.071620435
230	0xbd8ca905	-0.068681754
231	0xbdc7d449	-0.09757287
232	0xbc6e75e9	-0.014554479
233	0xbcee40e4	-0.029083677
234	0xbd805e59	-0.062679954
235	0xbd82e5eb	-0.063915096
236	0xbd2d6a6d	-0.042337824
237	0x3dced3d3	0.10098996
238	0xbddad7a7	-0.10685664
239	0xbd9606ba	-0.07325502
240	0xbdd603a6	-0.10449915
241	0x3d83a509	0.06427962
242	0xbb091fac	-0.002092342
243	0xbdcf8908	-0.101335585
244	0xbddca158	-0.107729614
245	0xbda0f241	-0.07858706
246	0x3c0373dc	0.0080232285
247	0xbdf31a78	-0.11870283
248	0x3c3363bc	0.0109490715
249	0xbd0399e5	-0.032129187
250	0x3d9c0e60	0.07619929
251	0x3d0c02f2	0.034182496
252	0xbcef1e43	-0.029189235
253	0xbe034d03	-0.12822346
254	0xbdedeadb	-0.11617061
255	0xbd4b8989	-0.04969171

lstm.weight_hh_l0_reverse f4 [256, 64]
0	0x3bf047e7	0.00733279
1	0x3d21aeec	0.03947346
2	0xbdb1b028	-0.08676177
3	0x3e048006	0.12939462
4	0xbdef4c99	-0.11684532
5	0x3da77eb9	0.08178467
6	0xbcb061b4	-0.021530963
7	0xbd90e3d6	-0.07074706
8	0x3d99c1e8	0.07507688
9	0x3d48d8e7	0.04903498
10	0xbd628f75	-0.055312593
11	0xbdc3bc2d	-0.09557376
12	0x3df33d32	0.118769065
13	0x3d81ca38	0.06337398
14	0x3d919df7	0.071102075
15	0xbe0036ae	-0.12520859
16	0xbda36285	-0.079777755
17	0xbe026498	-0.12733686
18	0x3bf09a19	0.0073425886
19	0xbdef8a8e	-0.11696349
20	0x3d1bf5e3	0.038076293
21	0xbde20a7a	-0.110371545
22	0x3d7ecb84	0.062205806
23	0x3d6b6eff	0.0574789
24	0x3d84576e	0.064619884
25	0xbbc91961	-0.0061370586
26	0x3dc27769	0.09495432
27	0x3ce674ba	0.028131831
28	0x3dd87b62	0.105704084
29	0xbcf21b0a	-0.029553909
30	0x3da1657b	0.07880684
31	0x3da028a9	0.07820255
32	0x3d37f387	0.04490998
33	0x3dc4bc48	0.09606224
34	0xbdd6b66f	-0.10484015
35	0x3d4279a2	0.04747928
36	0x3d04f279	0.032457802
37	0x3dd24b7c	0.10268304
38	0xbd665030	-0.056228817
39	0xbd562b3b	-0.05228732
40	0xbdb00522	-0.08594729
41	0xbcd26595	-0.025683204
42	0x3c9ba50d	0.0189996
43	0x3d577e21	0.05261052
44	0x3dd03045	0.10165457
45	0xbdca4a00	-0.09877396
46	0x3e03e193	0.12879018
47	0xbd922e9a	-0.07137795
48	0x3decf77c	0.115706414
49	0x3dca8422	0.098884836
50	0xbdb8e796	-0.090285465
51	0x3c9b2afc	0.018941395
52	0x3c53c959	0.012926423
53	0xbd7e7e3f	-0.062132116
54	0xbd75ba26	-0.059991978
55	0x3c4015ce	0.011723949
56	0x3d49e31b	0.04928885
57	0x3df0a6ab	0.117505394
58	0xbcd82c5d	-0.026388342
59	0x3ccaaacd	0.024739647
60	0xbc15ccfc	-0.00914311
61	0xbd11fdd9	-0.03564248
62	0x3d5bf2e7	0.053698447
63	0xbd2e0963	-0.04248942
64	0x3bd8b8dc	0.006613834
65	0xbdb13b6c	-0.08653912
66	0x3d1cb85d	0.03826176
67	0xbd08b233	-0.03337307
68	0x3d7bbc48	0.061458856
69	0xbcb126f2	-0.021625016
70	0x3dbdd72f	0.09269559
71	0xbcbf4a21	-0.023350777
72	0xbc8f79a7	-0.017514063
73	0xbd6eee11	-0.058332507
74	0x3de8e8c8	0.113725245
75	0x3d4c0a00	0.049814224
76	0x3c09b326	0.008404529
77	0xbd988504	-0.07447246
78	0x3ccc3a4a	0.024930138
79	0xbdf28356	-0.118414566
80	0xbd294e6c	-0.041334555
81	0x3da0e9ae	0.07857071
82	0x3ade1007	0.0016942032
83	0xbd8a1f42	-0.06744243
84	0x3daa70db	0.08322307
85	0xbc68cd55	-0.014209111
86	0x3d3d0060	0.046142936
87	0xbc8c7d95	-0.017149726
88	0xbd1755ff	-0.036947247
89	0xbc86f7be	-0.016475555
90	0xbda0a13e	-0.078432545
91	0xbd3fb634	-0.04680462
92	0xbdae3afa	-0.08507343
93	0x3d2f669d	0.04282247
94	0x3bbba146	0.0057260124
95	0xbd393198	-0.045213312
96	0x3d960fd4	0.07327238
97	0xbd7d87cc	-0.061897084
98	0x3b8ef243	0.004362376
99	0x3b4e030a	0.0031434917
100	0x3ddcc0fc	0.10778996
101	0xbd2b490c	-0.04181771
102	0xbd8d255f	-0.068918936
103	0x3bc8ff50	0.0061339512
104	0x3cde82c4	0.027161963
105	0x3ceef158	0.029167816
106	0xbdc8dae6	-0.098073766
107	0xb8dc97f0	-0.00010518718
108	0x3c26a66e	0.010171516
109	0x3df3330c	0.11874971
110	0x3d3a719c	0.045518503
111	0x3d481d8f	0.048856314
112	0x3b6a4659	0.0035747497
113	0x3d2ad733	0.041709136
114	0x3daa7f0b	0.08325013
115	0x3d21972a	0.039450802
116	0x3c8cc327	0.0171829
117	0x3ccaa488	0.024736658
118	0xbd81a8e0	-0.063310385
119	0x3cda9e0e	0.026686694
120	0xbe00003c	-0.1250009
121	0xbc5210ec	-0.012821417
122	0x3de60445	0.11231283
123	0x3c03f9f6	0.008055201
124	0x3cd4bfe1	0.025970401
125	0xbc1516fc	-0.009099718
126	0xbddc62d0	-0.107610345
127	0xbba73f3f	-0.005103975
128	0x3d81a55b	0.06330367
129	0x3d76b91b	0.060235124
130	0x3d6be536	0.05759164
131	0xbddfa619	-0.109203525
132	0xbdaf754e	-0.08567296
133	0xbd9cb21a	-0.07651158
134	0xbdd32a23	-0.10310771
135	0xbd27ca77	-0.04096457
136	0x3dc45b19	0.09587688
137	0xbd96aafb	-0.07356831
138	0x3ca4502e	0.020057764
139	0xbbe03dcc	-0.0068433043
140	0xbde362d8	-0.11102837
141	0xbdbd8242	-0.0925336
142	0xbd6789e2	-0.05652798
143	0xbc76a015	-0.015052815
144	0x3de67f82	0.11254789
145	0xbd907148	-0.07052857
146	0xbdce2605	-0.100658454
147	0xbd4245c0	-0.0474298
148	0x3cd37927	0.025814606
149	0xbdee2721	-0.11628557
150	0x3d30b1b2	0.043138213
151	0x3d560e91	0.052259985
152	0xbd856165	-0.06512717
153	0xbdcb74f1	-0.09934414
154	0xbda9e599	-0.082957454
155	0x3c9dd2f8	0.019265637
156	0xbd147ec0	-0.03625369
157	0x3c91a232	0.017777536
158	0x3bb6b22d	0.0055754394
159	0xbcb94b19	-0.022618817
160	0x3dbfa9dc	0.0935857
161	0xbd76da13	-0.060266566
162	0xbdf0da68	-0.11760408
163	0x3d8bb070	0.06820762
164	0xbd8c6776	-0.06855671
165	0x3d1c87e9	0.03821555
166	0xbc4dab89	-0.012553104
167	0xbd3b6ffb	-0.04576109
168	0xbd5cfae6	-0.053950213
169	0xbd977ca3	-0.073968194
170	0x3d7608fc	0.060067162
171	0xbd97b165	-0.07406882
172	0xbd34e23d	-0.04416107
173	0xbdca0327	-0.098638825
174	0xbdfefb58	-0.12450284
175	0x3d07f181	0.0331893
176	0x3d3b8843	0.045784246
177	0x3dc4a592	0.096018925
178	0xbda8c0cf	-0.082399
179	0x3ca93e56	0.020659607
180	0x3deab429	0.11460144
181	0x3dfe28d9	0.12410135
182	0x3c8c1498	0.017099664
183	0xbd67e80a	-0.056617774
184	0x3d970a0f	0.073749654
185	0xbdd72e61	-0.10506893
186	0xbdca08d2	-0.098649636
187	0x3d83e902	0.06440927
188	0x3d80a399	0.06281204
189	0xbdb4d72e	-0.08830105
190	0xbcde3909	-0.027126806
191	0x3dd9142d	0.10599551
192	0xbccd5014	-0.025062598
193	0xbcfb1f37	-0.030654533
194	0xbde82ebb	-0.11337038
195	0x3dabd5d8	0.08390397
196	0x3dd3d7de	0.10343908
197	0xbdbf58fe	-0.09343146
198	0xbda04b0e	-0.078268155
199	0x3db17dda	0.086665824
200	0x3d4ab4fd	0.04948901
201	0x3d816d89	0.0631972
202	0x3dbf0eb9	0.0932898
203	0xbd9622a0	-0.07330823
204	0xbd9bb058	-0.07601994
205	0x3d2a41e4	0.041566744
206	0x3df274d2	0.11838688
207	0x3db37987	0.08763414
208	0x3daac9a5	0.08339242
209	0x3bd17dee	0.006393186
210	0xbca1658b	-0.01970174
211	0x3d644ace	0.0557354
212	0x3d614510	0.054997504
213	0xbd16e8b0	-0.036843
214	0x3dbc9c35	0.092094816
215	0x3c8cda9b	0.017194083
216	0xbc93f2da	-0.018060137
217	0x3ccd16ba	0.025035251
218	0x3d70362c	0.058645412
219	0x3ce21afa	0.027600754
220	0xbd952a85	-0.072835006
221	0x3dd0eb08	0.10201079
222	0xbc5b57fb	-0.013387675
223	0xbde68d79	-0.112574525
224	0x3d7c8c94	0.061657503
225	0xbd41c307	-0.047305133
226	0xbd50dfce	-0.050994687
227	0x3d820f0e	0.06350528
228	0xbdcfa094	-0.1013805
229	0x3d2c46d2	0.042059727
230	0x3b79d75c	0.003812275
231	0xbde1f3f9	-0.11032862
232	0x3c964604	0.018343933
233	0xbd06756b	-0.032826822
234	0xbd8669a6	-0.065631196
235	0x3d804976	0.062640116
236	0xbd1a9a6c	-0.037744924
237	0xbd407551	-0.04698688
238	0x3d0bb21d	0.03410541
239	0x3c32b619	0.010907673
240	0x3dd3f47a	0.103493646
241	0x3df09b1c	0.11748335
242	0xbdd77ef0	-0.10522258
243	0xbdbb4825	-0.0914462
244	0xbd8bb35d	-0.0682132
245	0x3cc63b56	0.024198215
246	0x3d05fff0	0.032714784
247	0xbdd9aa86	-0.10628228
248	0xbd988f9f	-0.074492685
249	0x3d33349c	0.043751344
250	0xbd935ee3	-0.071958326
251	0x3d8d0a93	0.068867825
252	0x3dd107b1	0.10206545
253	0x3caef447	0.021356715
254	0xbd09aec3	-0.03361393
255	0x3d7a3fc5	0.06109597

lstm.bias_ih_l0_reverse f4 [256]
0	0xbca23cb1	-0.01980433
1	0x3d63d02e	0.055618457
2	0xbdbae2b9	-0.09125275
3	0xbd37fb3f	-0.04491734
4	0xbdb1a3fa	-0.08673854
5	0xbdb7e7c2	-0.08979751
6	0xbd36efba	-0.044662215
7	0x3de4282c	0.11140475
8	0x3d0dda31	0.03463191
9	0x3c3263d5	0.01088806
10	0x3d9370cd	0.071992494
11	0x3e0504be	0.1299009
12	0x3c332450	0.010933951
13	0xbdc7692e	-0.09736858
14	0xbb7d90d2	-0.0038691056
15	0xbc0f9738	-0.008764081
16	0xbd114cd3	-0.035473656
17	0x3d5ed55d	0.054402698
18	0x3cfcfae5	0.030881355
19	0xbdb91867	-0.090378575
20	0x3dea0393	0.11426463
21	0xbc2acf24	-0.010425363
22	0x3da162ca	0.07880171
23	0xbc1b86e7	-0.009492612
24	0x3cb3976c	0.02192279
25	0x3cdf8d1e	0.02728897
26	0x3df12945	0.1177545
27	0x3d7573f8	0.05992505
28	0x3d598f14	0.053114966
29	0xbd34fb74	-0.044185117
30	0xbcfb1496	-0.030649465
31	0x3df69f4e	0.12042104
32	0xbd9fd31e	-0.07803939
33	0xbdeb7033	-0.1149601
34	0x3d600da0	0.054700494
35	0xbd112e43	-0.03544451
36	0xbdf9c86f	-0.12196433
37	0xbc49a8ce	-0.012308313
38	0x3d7dbc84	0.06194736
39	0xbd22d0a4	-0.039749756
40	0xbcb85bd8	-0.022504732
41	0xbbfbd639	-0.0076854494
42	0xbd5ce4ec	-0.053929254
43	0xbda56482	-0.08075811
44	0x3ca9f75d	0.020747835
45	0xbdb75f9b	-0.08953782
46	0x3c779147	0.01511032
47	0xbda80a81	-0.082051285
48	0x3d64d13f	0.055863615
49	0xbc20be86	-0.009811049
50	0xbd988138	-0.074465215
51	0xbde3fd3c	-0.11132285
52	0xbd5669e8	-0.052347094
53	0xbd448372	-0.04797692
54	0x3d941b03	0.072317146
55	0xbde25539	-0.11051411
56	0xbde2ac17	-0.1106798
57	0xbdaedb37	-0.08537906
58	0xbdf043d8	-0.1173169
59	0xbbaa2ef1	-0.005193584
60	0x3db73aa8	0.08946735
61	0xbdf126eb	-0.11775001
62	0xbdc2e021	-0.095154054
63	0xbdcc6015	-0.09979264
64	0xbdcdb7f5	-0.10044853
65	0x3dcf4aa6	0.1012166
66	0xbc4af693	-0.012387889
67	0x3def3e39	0.1168179
68	0xbdd4d8ed	-0.10392938
69	0x3dea8ba8	0.114524186
70	0x3d83bf83	0.06433012
71	0x3d200caa	0.039074577
72	0x3df69d23	0.1204169
73	0x3c8480f3	0.016174769
74	0x3de0b31d	0.10971663
75	0xbd80d960	-0.06291461
76	0x3d2382bf	0.03991961
77	0x3d46da2a	0.0485479
78	0x3df9a940	0.12190485
79	0x3db948d3	0.09047093
80	0x3d3ccac6	0.046091817
81	0xbdb23801	-0.08702088
82	0xbd3cb1c4	-0.046067968
83	0xbd01dbf4	-0.031703904
84	0x3cd7bf44	0.02633632
85	0x3d311a11	0.04323775
86	0x3d403320	0.046923757
87	0xbe0289e0	-0.12747908
88	0x3da64ff4	0.081207186
89	0x3df101bf	0.11767911
90	0xbc2ae48d	-0.010430467
91	0x3decd06f	0.11563193
92	0xbb8c10c8	-0.0042744614
93	0x3de0ccd3	0.10976567
94	0xbdf45d6d	-0.11931882
95	0x3c9b8617	0.018984837
96	0x3dddd45d	0.10831521
97	0xbdbe1f0d	-0.09283266
98	0xbcb8968a	-0.02253272
99	0xbddace46	-0.10683875
100	0x3dfa76b1	0.1222967
101	0xbd1ec607	-0.038763072
102	0xbd99f34d	-0.07517109
103	0x3e0215a2	0.12703565
104	0x3d9b854f	0.07593786
105	0xbdd7dfed	-0.10540757
106	0xbcb973dd	-0.022638256
107	0xbd8fa575	-0.0701398
108	0xbc0d6bcf	-0.008631661
109	0xbd177119	-0.036973093
110	0x3de803f7	0.11328881
111	0xbde3b617	-0.11118715
112	0x3c0051d9	0.007832014
113	0x3da9ab9a	0.082846835
114	0x3d9382cc	0.07202682
115	0x3d049be7	0.032375243
116	0xbcce834b	-0.02520909
117	0xbd9802eb	-0.074224316
118	0x3d6ac871	0.057320062
119	0x3d9fe4e4	0.07807329
120	0xbcc91be4	-0.024549432
121	0x3d8f595d	0.069994666
122	0xbdc3cc1a	-0.09560414
123	0x3dd67203	0.10470965
124	0xbde9d0b2	-0.114167586
125	0xbdbd9d29	-0.092584915
126	0xbd5daad4	-0.054117993
127	0xbd2cf37a	-0.042224385
128	0x3d8941bd	0.06701992
129	0x3c1a605f	0.009422391
130	0xbdc49c25	-0.09600095
131	0x3d65faf8	0.056147546
132	0x3d859f9a	0.06524582
133	0xbd1d9c1b	-0.038478952
134	0x3db519c5	0.08842806
135	0xbdc239cf	-0.09483682
136	0xbce3920e	-0.027779605
137	0x3d779979	0.060449097
138	0xbb126f6c	-0.0022344245
139	0x3e03cfa9	0.12872185
140	0x3dbf3015	0.09335343
141	0xbd4cadab	-0.04997031
142	0xbdd6090d	-0.10450945
143	0xbda18fdd	-0.07888768
144	0x3d34f24c	0.044176385
145	0x3dce032d	0.100591995
146	0x3c10c602	0.008836271
147	0xbb4e4902	-0.0031476622
148	0x3dee22e1	0.116277464
149	0xbd73e3d7	-0.059543457
150	0x3dd8718f	0.105685346
151	0xbc170331	-0.0092170695
152	0x3de15c60	0.11003947
153	0x3d79d4e8	0.06099406
154	0x3db7bf3e	0.089720234
155	0x3d8d022a	0.068851784
156	0xbc481ccc	-0.012213897
157	0xbc6f5528	-0.014607705
158	0x3d11f5f4	0.03563495
159	0x3cf163db	0.02946656
160	0xbde2defe	-0.11077689
161	0x3db32964	0.08748129
162	0xbdfa860c	-0.12232599
163	0x3db0fb32	0.08641662
164	0x3d8554ce	0.06510316
165	0xbdb7d8c2	-0.0897689
166	0x3b3e04bd	0.0028994523
167	0xbd377890	-0.04479271
168	0xbdd0f78e	-0.10203467
169	0xbd924774	-0.07142535
170	0x3dee3819	0.116317935
171	0x3ddc277f	0.10749721
172	0x3c25c99a	0.010118866
173	0x3d439b3d	0.04775547
174	0xbd382854	-0.044960335
175	0x3d191f15	0.037383158
176	0x3cd4789d	0.02593642
177	0x3db0f0cc	0.08639678
178	0xbd1e1938	-0.03859827
179	0xbd59a03c	-0.053131327
180	0x3d0cb4db	0.034352165
181	0xbd5f5e6a	-0.0545334
182	0x3dd2eaa2	0.10298659
183	0x3c97e47a	0.018541563
184	0x3bcde3cb	0.0062832586
185	0xbc1a8d39	-0.009433084
186	0xbceff5a5	-0.029291937
187	0x3d535c08	0.05160144
188	0xbde1a9e7	-0.110187344
189	0xbd462989	-0.048379455
190	0x3d9fd686	0.07804589
191	0x3dc7b856	0.09751956
192	0xbdd3f89d	-0.103501536
193	0xbde279c2	-0.1105838
194	0x3c813c12	0.015775714
195	0x3cb5847a	0.022157896
196	0xbc385083	-0.011249664
197	0x3db7de09	0.08977897
198	0xbd044c18	-0.03229913
199	0xbd4547f5	-0.048164327
200	0xbdda9b72	-0.1067418
201	0xbc14ee0d	-0.009089959
202	0x3bb719fd	0.005587815
203	0x3c2be9b7	0.010492734
204	0x3b822988	0.003972236
205	0x3d03aee0	0.032149196
206	0xbd8c7bdc	-0.06859562
207	0xbd79d041	-0.060989622
208	0xbd760c8a	-0.060070552
209	0x3da3e14e	0.08001958
210	0x3c7e0c09	0.015505799
211	0x3d99d2fc	0.07510945
212	0x3d7c8b50	0.061656296
213	0xbdca5bf9	-0.09880824
214	0x3cbca47b	0.02302765
215	0xbd49dab0	-0.049280822
216	0xbd748ce0	-0.05970466
217	0xbd26c6e0	-0.040717006
218	0x3d185cf2	0.037198015
219	0x3d2538d8	0.040337414
220	0x3dd3ff43	0.10351422
221	0x3c19812d	0.009369177
222	0x3c400459	0.011719787
223	0x3e0022ec	0.12513322
224	0xbd9a2037	-0.07525676
225	0xba831d0e	-0.0010003166
226	0xbda7cb58	-0.081930816
227	0xbd2ec90c	-0.042672202
228	0xbc27cc5e	-0.010241596
229	0x3dccaaa6	0.09993486
230	0x3de2801c	0.11059591
231	0xbcb6698e	-0.02226713
232	0xbcf88036	-0.030334573
233	0x3c84fdf8	0.016234383
234	0x3dc80669	0.09766848
235	0x3d80410d	0.062624075
236	0x3cfede07	0.03111173
237	0x3df7a4c6	0.12091975
238	0x3d24b6d7	0.040213432
239	0xbe0166b0	-0.12636828
240	0xbd48fd57	-0.04906973
241	0x3dfbb97f	0.1229124
242	0x3de9bb75	0.11412708
243	0x3dcb2f78	0.09921163
244	0x3d41754b	0.047231
245	0x3d9f304b	0.07772883
246	0xbc8df647	-0.017329348
247	0x3d94fb37	0.07274478
248	0x3c6079a4	0.013700876
249	0xbd97d15a	-0.074129775
250	0x3cea5332	0.028604124
251	0xbc2fdceb	-0.010733823
252	0xbdaec20d	-0.08533106
253	0xbcd59209	-0.026070612
254	0x3dec1b33	0.11528625
255	0xbd487a35	-0.04894467
