주가 지수 예측 시스템/best_model.pth (torch, 686370 bytes, 17 tensors)

lstm.weight_ih_l0 f4 [256, 72]
00000000: c964 d5bd e558 c6bd 47b3 f1bd b0d1 853d
00000010: 6dfc f6bd 8e44 b93d 7a36 043e 6eef 9ebd
00000020: 9b3c a93d b091 8bbd c6eb 8dbd e32c 003c
00000030: fef1 973d a67f a23d b4f9 6f3d d860 81bd
00000040: 855f e03d 994e 64bd 61b7 a1bc e9da 6e3b
00000050: 23b5 e9bd e8f1 96bd 3bc0 cc3d aa24 6a3d
00000060: da30 c9bd 63a8 81bd 813c 993d 3271 3cbd
00000070: 1bb8 70bd 1a96 a73d 0782 de3d 0763 843d
00000080: 917b ce3c 8213 00bd e07e 833b 2938 a2bd
00000090: 76eb c53c 0e8e 18bd e97a 11bd b4ca eabd
000000a0: 9990 0f3d e24b a2bc 4149 183d 7694 ffba
000000b0: 264d 3dbc 39d2 0ebd c9c2 e83c 2735 873d
000000c0: 8d6d b1bb a450 2b3b e56b 943d 618a 913c
000000d0: 479f 243d b4b1 85bc ae7a 2ebd 5e4b d1bd
000000e0: dd28 fe3d b9a8 673d 24c1 0fbb c79d c73c
000000f0: 31bb 043d 14be 6a3d 890e 80bd d232 89bd
00000100: 7b62 11bd 3acb cd3d 28d7 b6bd 9991 913d
00000110: c08c c53d 8ab9 f33c 07cf cebd f00a ffbc
00000120: 5c7a d0bc 9e77 a9bd d4f8 d9bd 0f0c 033d
00000130: 3b62 633d b9eb 85bd a170 9ebd 21b8 8ebd
00000140: 5195 4a3d a22f 263c 5d84 b73c 0b52 a43d
00000150: f285 b73c 5ef2 e0bc a0c0 2c3d b983 853c
00000160: d6fa 38bd 0a2d d43d 05a8 c93c f011 ebb9
00000170: 955b ac3d 1fbb f23d 16d9 123d b262 dd3b
00000180: 1db5 b9bd 0dd4 edbc c41b c93d 19c6 b03d
00000190: 3dc0 41bd 838e af3c a001 24bd e017 c8bd
000001a0: 4d95 23bd 6318 cebd 9d2c af3c a844 f7bc
000001b0: 0710 8cbd 18e3 e23d 4104 b3bd ad56 e53d
000001c0: 7ec8 e9bc 2430 c93d c392 b3bd 82b7 0dbd
000001d0: 1118 193d 6986 2cbd 26ce e3bb ea57 4cbd
000001e0: 8368 55bd 01fe 973d 26ec ba3d f747 4d3d
000001f0: 50f0 413b 0b02 823b 533f 453c 9fc7 21bd
00000200: 6526 5bbd e8a1 b2bd 6775 c03c 2024 a8bd
00000210: 11da 4c3b 1c63 ddbd 8370 a93d e8d6 003e
00000220: 5a83 f53c d965 0fbd ead0 943d 408a c3bd
00000230: 20ce f53d a0ff 003e 63d1 f23d fff4 ac3d
00000240: 94d5 01bd ccb2 babd 7f6c c53c 3fc4 a7bc
00000250: c5b9 bfbd bdbf 053d 8bba fd3d a96c 8bbd
00000260: d73a 9fbd be44 febc 4cc8 90bd 7d8e d3bb
00000270: 98ea 99bc 724f b13d bb26 dd3d 1972 9c3d
00000280: 8a24 c63c 1c75 edbc a040 b8bd 51fc 723d
00000290: 359c 4abd ca01 c73d c808 16bd a5f0 653d
000002a0: b27f 02bd 6123 92bd 74c1 a2bd e1ce 283d
000002b0: fc01 ac3d 0e36 903d 9e8e 383d 620a abb9
000002c0: 22e2 4cbc 8eeb 89bd 2a27 233d b13b be3d
000002d0: e690 9c3d 8fec 9cbd eab5 213c 8ef1 d8bd
000002e0: ffe6 2bbd d5ba 213d 3d92 f23d 5695 373b
000002f0: f425 5bbd 6b14 dabd c67f 1e3d eed6 5bbd
00000300: 2228 eb3d 93d1 48bd ec05 68bd a774 df3d
00000310: 55fe c4bd 1150 ec3d 4e6a 693c badd 823d
00000320: af7f b4bd 7ec3 3cbd 9100 173d 7449 d0bd
00000330: 5ddd d1bd f75a 043e 3653 05bc 0378 103d
00000340: 487c a8bd ef25 f9bc b44d d1bc c823 6d3d
00000350: 7ad1 b03d 52e7 743d 4c67 bd3d 9657 82bd
00000360: 8dc3 023d 63c8 66bd 44c4 6dbd 32aa 813b
00000370: 09a3 873d 1807 dcbd 671f 993d 2508 8e3c
00000380: 20c3 fbbd 49fd c7bd c4a6 06be 2e99 d93c
00000390: 421e 5d3d 4c1a eabb 5555 443d d002 a6bd
000003a0: 1179 493d 80c9 d9bd 94e6 783c 61f9 873d
000003b0: 09d1 b03c 228d 52ba e330 7c3d 1da5 c4bc
000003c0: d5c5 f33b 9642 c9bd b7a8 8e3d 69de c6bc
000003d0: d799 c1bd c83e eebd 359b a4bb 9517 62ba
000003e0: 621b a63d 9977 8fbd 85a5 0cbe 8813 d73c
000003f0: 2822 093d 5a89 c63d 8a85 903d f5b2 aa3d
-0.10419614 -0.09684924 -0.118017726 0.06534135 -0.12059865 0.09046279 0.12911406 -0.07760511
0.08263513 -0.06814897 -0.06929736 0.007823202 0.07419203 0.07934503 0.058587745 -0.063172996
0.10955719 -0.05573902 -0.019740762 0.0036446399 -0.11411502 -0.07370359 0.099976026 0.05716387
-0.09823771 -0.06330945 0.07482243 -0.04600639 -0.058769327 0.081829265 0.108646445 0.064642005
0.025205405 -0.031268604 0.0040129274 -0.07920868 0.024160128 -0.03724485 -0.035517607 -0.11464444
0.03505001 -0.019811574 0.037179235 -0.0019499201 -0.011554038 -0.034868453 0.028413193 0.06601935
-0.005414671 0.0026140595 0.07247142 0.01776618 0.04019096 -0.016320087 -0.042597465 -0.10219453
0.12410138 0.05655739 -0.002193519 0.024367226 0.032405082 0.05731018 -0.06252772 -0.06699146
-0.03549431 0.10048528 -0.089277565 0.07107849 0.096459866 0.029751558 -0.10098081 -0.031133145
-0.02544897 -0.08274768 -0.10643163 0.03199392 0.0555136 -0.06539101 -0.07736326 -0.069687136
0.049458805 0.0101431925 0.022401983 0.08023461 0.022402737 -0.02745932 0.04217589 0.016298162
-0.04516109 0.10360153 0.02461625 -0.00044836057 0.084159054 0.11852097 0.03585156 0.00675615
-0.09067748 -0.029031778 0.09819749 0.08631534 -0.047302473 0.02143026 -0.040040612 -0.09770179
-0.039937306 -0.10063245 0.021383578 -0.030184105 -0.068389945 0.11078471 -0.08741046 0.11198173
-0.028537985 0.09823635 -0.08768227 -0.034598835 0.037376467 -0.04212037 -0.006952065 -0.04988853
-0.052101623 0.07421494 0.09127073 0.05011746 0.00295927 0.0039675287 0.012039023 -0.039497014
-0.053503413 -0.087222874 0.023493482 -0.08210015 0.0031257907 -0.10809919 0.08273413 0.1258198
0.02996986 -0.03500924 0.0726641 -0.095478535 0.12002206 0.12597513 0.118563436 0.08445167
-0.031697825 -0.09116134 0.024099587 -0.02047932 -0.093616046 0.03265356 0.12389096 -0.06807835
-0.07774895 -0.031038638 -0.070694536 -0.006456195 -0.01878862 0.08657731 0.10798403 0.0763895
0.024187345 -0.028986506 -0.08996701 0.05932266 -0.049465377 0.09717138 -0.03662947 0.0561377
-0.03186006 -0.07135654 -0.079470545 0.04121292 0.08398816 0.0704156 0.045057885 -0.00032623397
-0.012505086 -0.067343816 0.03983227 0.09288729 0.07644825 -0.076623075 0.009870032 -0.10592948
-0.041968342 0.039484818 0.11844299 0.0028012595 -0.05350299 -0.10648426 0.038696073 -0.05367177
0.11482264 -0.04902799 -0.056646273 0.109109215 -0.096188225 0.11538709 0.014246536 0.06389947
-0.08813416 -0.046084873 0.036865775 -0.1017026 -0.102473 0.12925325 -0.008137515 0.035270702
-0.0822683 -0.030413596 -0.025549747 0.05789545 0.086337045 0.059790917 0.09248218 -0.06364362
0.031924773 -0.056343447 -0.0580485 0.0039570564 0.06622893 -0.107435405 0.07476693 0.017337868
-0.122930765 -0.09765107 -0.13149554 0.0265623 0.053983934 -0.007144248 0.04793294 -0.08106005
0.049187724 -0.10634136 0.015191693 0.06639362 0.02158405 -0.00080318947 0.06157006 -0.024004513
0.007439355 -0.098271534 0.069657736 -0.024275975 -0.09453171 -0.11633068 -0.005023385 -0.000862473
0.081106916 -0.07005233 -0.13735016 0.02625443 0.03347984 0.096941665 0.070567206 0.083349146

lstm.weight_hh_l0 f4 [256, 64]
00000000: b08b 1f3d 7b15 a23c 39e7 f4bd 1344 c5bc
00000010: 41ca 783d b17d d13d ead3 a63d e5e8 aebd
00000020: 99e8 313d d34e 81bd 100a 3fbd 79ad d03b
00000030: 9321 efbd 7bf7 18bd aef7 e0ba 6c9d fe3d
00000040: cb31 90bd 9cf4 cc3d 7042 903d a1f2 de3c
00000050: f7b4 1ebd 84d8 89bd 3e4e c43d 1259 133c
00000060: 1e55 b83d 35ec 6b3d 9d9d 393d 44a5 a8bd
00000070: 7928 883d dab6 cdbd e8b4 b1bd f71d fd3c
00000080: 0749 37bd aa68 5ebd 2d4c 153c a9eb 1e3b
00000090: 8930 d1bd 9d98 1e3d c5d0 2a3d 7564 d9bd
000000a0: 8bea 2fbd 69ff e53d a08a cabd 9196 8b3d
000000b0: 7ac5 a33d 1aff e9bd 147c fd3d 7115 053d
000000c0: fd9c 5dbc 8f48 b03c 6459 dcbd cc20 303d
000000d0: 15f2 e73d 3abd 193d 4955 eebd 600b a73d
000000e0: 432b e73d ad55 01bd 2c2f e7bd fcc8 1f3d
000000f0: 1465 91bd 0ba9 8cbd bc20 febc 1be2 883d
00000100: 68f2 303b cd3f 8fbd d9e0 403d e19e b0bd
00000110: 0b44 28bb 31d5 23bc 3576 363d 5187 e0bd
00000120: ad09 a5bc b23d 33bd 4653 55bd 2410 003b
00000130: ed6d 0fbc 1e16 c73d c81b 10bd 57a5 803d
00000140: e5e8 343d c241 e8bd d592 fd3d c167 cabd
00000150: a3fa c73d c20b 6ebd 4aad c5bd 0591 9cbd
00000160: eb59 7e3b 4393 95bd aa18 e33b 64e5 acbd
00000170: ecb9 073d 0951 75bd 21d4 1dbd 3f6f c83d
00000180: f777 80bd bd07 603d e3dd a33d c38c 88bd
00000190: 221d 88bc 25d2 293d 6c66 02bd a868 febd
000001a0: 6e3c c53c cadc c1bd ca81 d8bd a544 5e3c
000001b0: bb4d 5dbd 9f2f 9a3c fca5 cd3d 6c13 b43d
000001c0: ed27 02be 41fe 0d3d 1bdc a2bd 9e57 e5bd
000001d0: 53cb eabd 3e22 593d b148 b93d 8364 bd3d
000001e0: 15f5 6ebd 2bc3 a6bd 0e00 bd3d 1f6e 0a3e
000001f0: 095d 6cbd 704c 963b 837c 7a3c af27 013c
00000200: c381 b5bd 662e 8ebd e928 c2bd c470 c63b
00000210: 04d6 5fbc 35a9 41bc b29c f53d 3635 733d
00000220: f706 ae3d a405 9dbd 869e d23c 389d b53a
00000230: 101e 9d3d 21ae ab3d f1b4 d3bd f8ab 293d
00000240: 5a0e 07bd 9099 f4bd 66b8 1ebd 9ac9 61bd
00000250: 6f26 ec3d 0258 823d da75 a4bd 2038 bd3c
00000260: 63c9 1f3d b50f aabd 802c ebbd f923 5bbd
00000270: 3f60 b63d 603a edbc 63ae 8d3c 42bd 9dbb
00000280: 98b7 463d 8725 91bd 1bc6 cebc b187 b0bd
00000290: 912f c33c 98fb e3bd 1f80 c53d e64d 2dbd
000002a0: a09c 4fbd 3c55 c53d f276 a13d 7ae9 05bd
000002b0: 19e9 c83d f3ad de3d 35cf 7e3c 7f6a f53d
000002c0: 9ca7 a33d 672e 193b 19c2 eb3d 3b13 d4bc
000002d0: f06c c73d 3b42 56bd 8cd0 f53d 5c3d bf3d
000002e0: 4558 c3bd a253 e2bd 5a8c 5a3d ac17 46bc
000002f0: 33f0 283d 126e eebd 254d 0d3d 731c e63c
00000300: 1de1 213d ac85 e23d 4922 e0bc 4536 bf3d
00000310: 5d8f 893d bf72 d1bd 2924 f4bd d675 dbbc
00000320: ae18 c6bc 5b31 603d d2a5 0a3c 6ff1 283d
00000330: 7a36 513d e873 1c3d e119 45bd 4e6d a13c
00000340: 68b5 d5bd f22a 823d 1168 aabc 42c9 d23d
00000350: 150d 693d fed7 4b3d a318 cebd e937 57bd
00000360: 94ce 3e3c b5bf f33d 3d8e d03d 4399 733d
00000370: 24db 133d 428e bebd 125f fdbd fad3 a73d
00000380: ca74 833d bfb4 ac3d 448a bd3d 554c 63bd
00000390: 40a9 023e 937b 8a3d 61d7 aa3b c20a c63c
000003a0: 4663 98bc 801e f93d d997 713d 2a4c 5a3d
000003b0: e84d 8bbd 3347 6dbc 03db a73b 57bb e4bd
000003c0: a072 ef3d 7775 9c3d 5969 71bd 1824 c33d
000003d0: 161e d9bc ba44 813d 500f a4bd 0607 f83d
000003e0: 2e80 fcbd 26fe bcbc 1d63 1f3c 2a93 d33d
000003f0: 506a b3bd 1098 903d 3bd2 a03d db44 433d
0.038951576 0.019785633 -0.11958165 -0.024080312 0.06073976 0.10229052 0.08145888 -0.08540515
0.043434713 -0.06313863 -0.046640456 0.006368336 -0.11676326 -0.03734539 -0.0017163658 0.124323696
-0.07040747 0.10007593 0.07043922 0.027215304 -0.0387468 -0.0673075 0.09585236 0.008993404
0.0900061 0.05759831 0.045316327 -0.08234647 0.066483445 -0.10044642 -0.08677083 0.030898077
-0.04474738 -0.054299034 0.0091124 0.002424935 -0.102143355 0.038719762 0.041703004 -0.10614864
-0.042948287 0.11230356 -0.09889722 0.06815828 0.0799665 -0.1142561 0.12377182 0.03249115
-0.013526198 0.021518974 -0.107592374 0.043000028 0.1132547 0.037533976 -0.116373606 0.081564665
0.112875484 -0.031575847 -0.11288294 0.039010033 -0.07099357 -0.0686818 -0.031021468 0.06683751
0.0026999954 -0.06994591 0.04708943 -0.08624054 -0.0025675322 -0.009999559 0.044546325 -0.109633096
-0.020146215 -0.04376001 -0.05208137 0.001954087 -0.008754236 0.097210154 -0.035182744 0.06281536
0.044167418 -0.11340667 0.123815216 -0.09883071 0.09764602 -0.058116682 -0.09652193 -0.07644848
0.003881092 -0.073034786 0.0069304304 -0.0844219 0.033136293 -0.059891734 -0.03853238 0.097868435
-0.062728815 0.05469488 0.08001306 -0.06667473 -0.016615454 0.041460175 -0.03183596 -0.12422305
0.024076667 -0.0946594 -0.1057163 0.013566171 -0.054029208 0.018821536 0.10041425 0.08792767
-0.12710543 0.034666304 -0.07952138 -0.11198352 -0.11464562 0.05301117 0.09047068 0.09247687
-0.058339197 -0.08142694 0.09228526 0.1351857 -0.057705913 0.004586749 0.015288475 0.007882996
-0.08862641 -0.069424435 -0.09480459 0.006055923 -0.013661865 -0.011820127 0.11992778 0.059376918
0.08497422 -0.076670915 0.025710355 0.0013856059 0.076717496 0.08382822 -0.10337246 0.041423768
-0.03297267 -0.11943352 -0.038750075 -0.055123903 0.11530768 0.063644424 -0.08030291 0.023098052
0.039010417 -0.08303777 -0.11483097 -0.053501103 0.08905076 -0.0289585 0.017295068 -0.004813821
0.048514932 -0.07087236 -0.025240948 -0.08619631 0.023826392 -0.11131972 0.09643578 -0.042310618
-0.05068648 0.09635398 0.07884015 -0.032693364 0.09810085 0.10873022 0.015552332 0.11983203
0.07990953 0.0023373605 0.115116306 -0.025888076 0.09737575 -0.052309256 0.12002668 0.09337875
-0.095383205 -0.11051108 0.053356506 -0.012090605 0.041244697 -0.11642088 0.0344974 0.028089738
0.039521325 0.11060652 -0.027360098 0.09336523 0.067167975 -0.10226964 -0.119209595 -0.026789587
-0.02418169 0.05473457 0.008462386 0.041245874 0.051077344 0.038196474 -0.048120383 0.01970544
-0.10434991 0.063558474 -0.020801576 0.10292293 0.05689724 0.049766533 -0.10063293 -0.052543554
0.011645932 0.119017996 0.1018338 0.059472334 0.03609766 -0.09304477 -0.12371649 0.08194728
0.0641876 0.08432912 0.09254888 -0.055492718 0.12759876 0.06761851 0.0052136634 0.024175052
-0.018602025 0.121640205 0.058982704 0.053295292 -0.06801969 -0.014482307 0.005122544 -0.11168545
0.11691785 0.07639592 -0.058938358 0.09528369 -0.026503604 0.06311937 -0.08010733 0.121107146
-0.12329136 -0.023070406 0.00972822 0.10330804 -0.08760512 0.070602536 0.07852598 0.047673088

lstm.bias_ih_l0 f4 [256]
00000000: 8676 a2bd 1094 78bd fded e33d b74d b63d
00000010: faa2 bdbd 66bc 9bbd 12bf 5c3c cc87 dabd
00000020: f80b 803d 128f b3bc 78d9 a13d 7580 97bd
00000030: 1be9 133c 5d28 953c 6177 e93d dc7f d63d
00000040: 74f1 2c3c b10b aabd bcc6 633d 70b7 8b3d
00000050: 0deb 3d3d 79ba 3a3c 4a45 413d 3fef 78bd
00000060: a7a5 9f3d de8a 173d ff0b 0a3d 18f8 c63d
00000070: bfbb bb3d 6b2f c5bc de2e 12bc 7a44 dbbd
00000080: 5d51 91bd 4345 1fbd 6339 003e ac70 65bd
00000090: c31e f53b f5f6 95bd 4429 dd3d d445 243c
000000a0: 3bb1 d1bd 9e85 33bd 3512 993c 25c1 b63d
000000b0: b951 ebbd 2361 673d 5784 d23d 5c27 a8bd
000000c0: 049c 913d 111e 96bd 763e f83d 4501 e9bd
000000d0: 4502 09bd e4de 0f3d e4fc 753d 5256 f8bd
000000e0: a0eb ebbd 865b b63d 9e46 023d 8d5b c2bd
000000f0: f5a3 f9bd 4e92 17bc 0f2a 943d 1c54 06be
00000100: bfe9 aabd 751f 5abd 5ffe e8bd 0de9 44bd
00000110: 5488 61bd 9500 72bc c0a4 0dbd c7fb 9ebd
00000120: cd1b c8bc 71df f5bd 418f fd3c c858 04be
00000130: 21dd ef3c 908f 5fbd 2d95 58bd 4331 353d
00000140: 02d6 f53c df41 4d3d 5266 c63d 1cd3 c83d
00000150: 17b1 cb3d 9bc4 e8bc 21a0 503c d76a a9bc
00000160: 0764 35bd db46 043e cf94 82bd b7bb 21bd
00000170: b182 83bd 020e 33bc 354a 3ebc 1519 96bd
00000180: d5d0 d5bd f1b6 c83d 9bd2 8cbd fb1d 09be
00000190: c6b7 fabd f4f7 dc3c f608 d5bd 77bd 8dbd
000001a0: d78b 57bd 1279 7b3d a732 203d 8d21 d5bc
000001b0: 095c a63d af15 a23d f22e f83d d200 af3c
000001c0: 1469 093d d144 c5bd f802 c2bd 19f0 e93d
000001d0: f2e3 a83b 51cd e9bc fd4b a93c 29b0 babd
000001e0: 1a8a bb3d 22c2 4e3d 1a00 fb3d 8efc ad3d
000001f0: 9af7 c53d 299f d93d 324f e7bd 87b2 ebbc
00000200: 744a 873d fc55 1bbd 45f0 ad3d f74e ddbc
00000210: a07d 683c 91cd c7bd 7012 c6bc 1e03 633c
00000220: 53ea 82bd 613e 653d a666 e23d 912e d93d
00000230: 7719 3f3c e46c 393d 7345 f0bd fc18 383c
00000240: a222 3dbd 8509 0a3e 6782 e13d 82a4 0f3d
00000250: 2a77 4cbd 55ff 9d3d f7eb 48bd 6af6 f83d
00000260: ea4e 993d 4a33 b23d 16e2 65bd fbf7 4d3d
00000270: 07c3 2a3d d645 ba3d 515b 54bd 012f 1abc
00000280: 57b9 d53d 2ecf 6ebd 6e3f dbbd 7f90 0abd
00000290: 9b16 9a3b ccd3 a63d 0e8a e53d 4718 23bd
000002a0: df94 cb3d 4932 c1bd 4269 aebd 97b0 de3d
000002b0: 0ce0 4d3d 9f7f 443d 62e6 b83b b901 d1bd
000002c0: 3667 1a3c 87ce c43c 30d1 8f3d 4e26 b3bd
000002d0: 2398 fdbd 6cf4 893d e185 d33c 169c e23d
000002e0: 65b3 e83d 0d14 e8bc b76f 1e3d 24b8 af3d
000002f0: 9d30 0b3c 4646 a5bd 7755 983d 8022 86bc
00000300: 56aa 6ebd a51e e4bd b1c0 763b f788 e1bd
00000310: 63a9 b73d ef17 c0bd 72d8 ca3d db8d 3bbd
00000320: 20ba 913d 323f d5bd 8cd2 613d 4012 df3b
00000330: 9bfd aebd 351c a13d 527f a53d 20f8 49bd
00000340: 0aea a23d 73c4 81bc cb1c 033e cc04 99bc
00000350: 2d83 8a3d 8278 a23d 44b9 51bd 77dd 77bd
00000360: 77ba 2bbb 64e2 82bd 8406 6abc 7978 dd3d
00000370: 3e98 5e3d f806 a13d b964 debd 6171 c03d
00000380: 2c7d 7e3d 5c0a d93d 971f cfbd e853 91bd
00000390: d4f5 03be ac1e f73a dc36 a73c 6198 eabc
000003a0: 34bf 1dbd 7d4d c03d 134d 853d 59f2 d13d
000003b0: 802a 753d 7043 703d cd44 16bc 1233 37bd
000003c0: 3425 e43c 3b7d 6cbd 4380 b7bd 261d 163c
000003d0: a723 ddbd 4626 e33d d31a 8dbd 5fb4 073c
000003e0: 659c cdbd 0cc9 5dbd 482c d5bd 47c2 85bd
000003f0: f544 55bd 9913 60bd 7a4b ac3d dc9e ccbd
-0.07932763 -0.06068808 0.11129377 0.08901542 -0.09259601 -0.076042935 0.013473289 -0.106704324
0.06252283 -0.021918807 0.07902807 -0.07397548 0.009027745 0.018207723 0.11399723 0.10473606
0.010555614 -0.08303011 0.05560945 0.06822097 0.04636674 0.011396998 0.04718522 -0.060775038
0.077952676 0.03699767 0.033702847 0.09715289 0.09166669 -0.024070462 -0.008922307 -0.1070642
-0.07095597 -0.038884412 0.12521891 -0.056015655 0.0074804737 -0.07322494 0.107988864 0.010026414
-0.10238882 -0.0438286 0.01868544 0.08923558 -0.11490197 0.05648912 0.10279148 -0.08210632
0.07109836 -0.073299535 0.121212885 -0.11377195 -0.03344943 0.035124674 0.06005563 -0.12125839
-0.11519551 0.089041755 0.031805627 -0.09490118 -0.121894754 -0.00925119 0.072345845 -0.13118023
-0.08345365 -0.053252656 -0.113766424 -0.048073817 -0.055061653 -0.014770647 -0.034580946 -0.077628665
-0.024427319 -0.12005509 0.030952098 -0.12924492 0.029280247 -0.05458027 -0.05287664 0.044236433
0.030009273 0.050111648 0.09687485 0.09805891 0.099458866 -0.028414061 0.01273349 -0.020680828
-0.044284847 0.12917654 -0.06376039 -0.03948566 -0.06421412 -0.010928633 -0.011614372 -0.07329003
-0.10440222 0.09800518 -0.06876107 -0.13390343 -0.12242083 0.026973702 -0.104021 -0.06920903
-0.052623596 0.06139476 0.039110806 -0.026016975 0.08123023 0.07914292 0.12118329 0.021362696
0.033547476 -0.09632266 -0.094732225 0.11422748 0.0051541263 -0.028540285 0.020666117 -0.09115631
0.091572 0.05047811 0.12255879 0.084954366 0.09666367 0.106260605 -0.11294402 -0.028771652
0.06605998 -0.037923798 0.084930934 -0.027015192 0.014190108 -0.097560056 -0.024178714 0.013855724
-0.0639235 0.055967692 0.11054735 0.10604585 0.011663786 0.04526986 -0.117319964 0.0112364255
-0.046175607 0.13480194 0.110112004 0.035068996 -0.04991833 0.07714716 -0.04905316 0.12156375
0.07485755 0.08701189 -0.056123815 0.05028532 0.0416899 0.090953514 -0.0518449 -0.009410621
0.104357414 -0.05830305 -0.10705458 -0.03382921 0.004702402 0.08145866 0.112079725 -0.039818075
0.09940504 -0.09433419 -0.0851617 0.108735256 0.050262496 0.04797327 0.005642698 -0.10205407
0.0094240215 0.024024261 0.07022321 -0.087475404 -0.123825334 0.06736073 0.025820674 0.11064927
0.11362342 -0.028329873 0.03868076 0.08580044 0.008495477 -0.08070044 0.07438176 -0.016373873
-0.058267914 -0.111386575 0.0037651474 -0.11012452 0.08967855 -0.09379565 0.09904565 -0.04578958
0.07115579 -0.10412444 0.055132434 0.0068075955 -0.08544465 0.07866708 0.08080925 -0.049308896
0.07954796 -0.015840745 0.12803952 -0.018679045 0.06763301 0.07933141 -0.051202074 -0.06051394
-0.002620367 -0.06390837 -0.01428378 0.10813994 0.05434441 0.07862657 -0.10859055 0.09396625
0.062131092 0.10597679 -0.10113447 -0.07096082 -0.12886745 0.0018853745 0.020411901 -0.028637113
-0.038512424 0.0938978 0.06508841 0.10251302 0.059854984 0.058658063 -0.009171677 -0.04472644
0.027849771 -0.057736617 -0.08960011 0.009162223 -0.10797816 0.110912845 -0.06889882 0.00828275
-0.100395955 -0.05414681 -0.104088366 -0.06531196 -0.052067716 -0.05470619 0.084128335 -0.099912375

lstm.bias_hh_l0 f4 [256]
00000000: 5010 aabd 55de a1bd 0d39 d6bd c962 c0bd
00000010: 9836 b2bd c1a7 8a3d 5edf 9ebc 90ed b43d
00000020: ca8d 8c3d f03c debd b4f2 0cbc 5eb2 c63b
00000030: 1303 033e 4647 ae3d 0836 e13c 08fc 54bd
00000040: f12d 54bd f575 ddbd 10e6 993c 8c06 e83d
00000050: 41f6 a93c c1b7 eeba 187f 00be 0e41 093c
00000060: 82bd aabc b8b1 a2bc 37e1 5c3d 35c4 443d
00000070: 391b 26bd 1a57 9b3d 944f db3d ca2a e9bd
00000080: dea3 b33c 4cfc f63d 2d9f c3bc b6b7 6b3d
00000090: df81 acbd 8f39 04be 6a28 80bb 7a5c 073d
000000a0: c3f2 cf3c 703f 013e 183a 533c fb1f e7bd
000000b0: 7f92 2cbd 0496 c73d 73c5 97bd 340b f43c
000000c0: a5dd df3c 9ba4 c73d b914 02bd ef8a 883d
000000d0: deab 8abd 4249 c2bc 01ee dcbd 653d 02bd
000000e0: b649 e6bd 12f1 9fbd 410b 0cbd 7f65 95bd
000000f0: eff2 abbd a329 bcbd 6b59 97bd ea16 9e3c
00000100: 49ec c5bd 4688 9a3c 4671 d9bc 8bd4 193d
00000110: fb2e 993d 296b e73d 1562 373d 1dab dabd
00000120: df41 be3d 49ff c6bd 2eb4 323d 7215 9b3d
00000130: 3d16 fe3d c116 eebd 87b9 9fbb f73a b03c
00000140: 90a5 d53b bb0a b73d 550a 50bd 533a f53c
00000150: 316e acbd a07a b9bd 5a42 c13d 35f6 e03d
00000160: 7db3 733d e4b6 753d c4ac 79bd 01d9 c7bd
00000170: 9e47 303d 34fd babd 8cf2 c3bd 031e af3d
00000180: b9ee e33d f593 e43d 0b40 b23d 22c4 1c3d
00000190: 7fb7 86bc e8f8 5b3d 6a70 823d a3dd 88bd
000001a0: 238f a7bd 4580 f13d 078d 053d 6e86 aa3d
000001b0: eb62 8b3d f552 d4bd 448e a1bd ea72 c53c
000001c0: 2c06 033e 56b9 423d 3c9e c73d d3c0 cbbd
000001d0: f244 033e 3095 fdbd a42a 39bd 6137 e53c
000001e0: 90d7 a23d 5670 e5bd 44d3 1e3d a987 1dbd
000001f0: 8628 473d 9d0c 7fbd 2ed7 ce3d 4799 6cbd
00000200: 86c5 e43d 4cfb b63d d1e2 abbd ff09 dcbc
00000210: 33a2 833d 5e5d 5abd d9f1 aabd 16ef de3c
00000220: 7c83 21bc 8c0a 713b 0e1c 93bd 7fef 45bc
00000230: 5213 cf3d a480 68bc 7039 e1bc de9a 483c
00000240: bf69 cb3b 3460 76bd 919f 04bd f659 8c3d
00000250: e718 16bd 31b1 333d 6eb1 d7bd b60b e33d
00000260: 44db b73d 8b94 f4bc 7ca5 f73d a0d1 d53d
00000270: f51f 2cbd 0471 d43d 393e f13d b23f 263d
00000280: 9297 d1bc 21bb b7bc fa08 b03d a736 8ebc
00000290: 4f35 8c3d 0279 b6bd 5e22 ddbd 4cec cabd
000002a0: e5ff 903d 666f 0dbd 76cc a03d e0f6 00be
000002b0: 7802 4fbd 3b35 013e 8130 0a3e 610c fa3d
000002c0: ac27 a9bd d6c7 a43c 1f7a 1c3d 1c1b 70bc
000002d0: b1a4 e3bd 3145 4e3d bf81 5dbd 2c0b 9ebd
000002e0: fb99 b73d 8d83 c4bd f719 813d 997f ff39
000002f0: 6931 94bb 8c38 c03d b13a 8b3c 0a9a 04bd
00000300: 2451 713d 1627 473c 2bc5 bdbd e7d5 b43d
00000310: d17c 98bd 42e5 f0bc 0e4d 92bd 1c2b 633c
00000320: 3699 cc3d 4a9c 3fbd 57f1 7e3c 5ff9 d13d
00000330: 1bff c8bd c4a7 803d a0dd 393d 29a1 b23d
00000340: e6fe 843d ff04 df3d 2b25 b2bc 9131 9d3d
00000350: 35e5 21bd cc3a 5dbd 9072 bbbd 50f7 a7bc
00000360: 57bd 97bd 6552 dcbd dc18 883d fe00 823b
00000370: 4653 00be 0d76 4c3d 7bf4 e3bd 1d23 c53c
00000380: f798 4dbd ba03 2e3b 97fb 9e3d c51f a93c
00000390: cfbe c93d 2cf5 92bd 929a 5c3d 11d0 4dbd
000003a0: 7e19 d2bd 0a1b 713d 0fb4 e6bc f531 80bd
000003b0: c343 543d 05ce 353c 0591 7f3d 360d d8bc
000003c0: fd2d b73a c625 bb3d 212f 9a3d 59a2 a7bd
000003d0: 3c8a 69bd abbb 8cbc def4 603d 8665 5fbd
000003e0: 3716 adbd bf8c 9b3d c230 b5bd 55fc e1bd
000003f0: 8d00 ea3c 492b 89bb d4bd a73b de71 c23d
-0.083038926 -0.079037346 -0.104601 -0.09393842 -0.08701819 0.06770278 -0.01939362 0.08834374
0.068629816 -0.10851467 -0.008602787 0.0060637435 0.12794141 0.08509688 0.027491584 -0.05199817
-0.051801626 -0.10813514 0.01878646 0.11329374 0.020747306 -0.0018212722 -0.12548482 0.008377327
-0.020842317 -0.019860134 0.05392572 0.04803868 -0.040553305 0.07584973 0.10708538 -0.113851145
0.021928724 0.120598406 -0.023879612 0.057548247 -0.084232084 -0.12912582 -0.0039110677 0.033047177
0.025384312 0.12621856 0.012892269 -0.11285397 -0.042131897 0.0974541 -0.07410707 0.029790498
0.027327368 0.09748193 -0.031758044 0.066671245 -0.06771062 -0.023716573 -0.10787583 -0.03179683
-0.11244528 -0.078096524 -0.03419042 -0.072947495 -0.08395945 -0.09187629 -0.07390102 0.019298036
-0.096642084 0.018863808 -0.02654327 0.037556212 0.07479664 0.11299736 0.044771273 -0.106771685
0.09289908 -0.097166605 0.043628864 0.0757245 0.12406585 -0.11625434 -0.0048744115 0.021512492
0.0065199807 0.089375935 -0.050791103 0.029935038 -0.08419455 -0.09056592 0.09436484 0.1098446
0.059497345 0.05998887 -0.060955778 -0.09758187 0.04303705 -0.09130326 -0.095677465 0.08550646
0.11129517 0.11161033 0.087036215 0.038272984 -0.01644492 0.053704172 0.063690975 -0.06682899
-0.08181598 0.117920436 0.032605197 0.08326422 0.068059765 -0.10367385 -0.07888463 0.024102647
0.12795323 0.04754003 0.09746978 -0.09948888 0.1281927 -0.12381971 -0.04520668 0.027980508
0.079512715 -0.11203067 0.038775697 -0.038459454 0.04862263 -0.06226789 0.10099636 -0.057763364
0.11170487 0.0893465 -0.08392871 -0.026860235 0.064274214 -0.0533117 -0.0834691 0.027213614
-0.0098580085 0.0036779968 -0.071830854 -0.012081026 0.10111107 -0.014190827 -0.027493209 0.012243954
0.0062076743 -0.06015034 -0.032378737 0.06853096 -0.036644842 0.043870155 -0.10531889 0.11086218
0.089773685 -0.029855987 0.120921105 0.104403734 -0.042022664 0.103731185 0.11779446 0.04058809
-0.02558497 -0.022428097 0.08595462 -0.017360045 0.06846105 -0.08909799 -0.10797571 -0.09908351
0.07080058 -0.034530066 0.07851498 -0.12594175 -0.050539464 0.12617962 0.13495065 0.12209392
-0.0825952 0.02011482 0.0382024 -0.014654901 -0.11115397 0.050358955 -0.054078814 -0.077169746
0.08964916 -0.09595404 0.063037805 0.00048732458 -0.0045224917 0.093857855 0.01699576 -0.032373466
0.058915272 0.012155315 -0.092661224 0.08829861 -0.07445682 -0.029406194 -0.07143603 0.013865259
0.0999016 -0.04677991 0.01556047 0.10252642 -0.098142825 0.06281999 0.045377374 0.08722145
0.064939305 0.10889625 -0.021746239 0.0767547 -0.03952523 -0.05401115 -0.091527104 -0.02050367
-0.074091606 -0.10757903 0.066453665 0.0039674034 -0.12531766 0.04991727 -0.11130615 0.024064595
-0.050194707 0.0026552514 0.07762831 0.020645032 0.09850847 -0.07175669 0.053858347 -0.050247256
-0.102587685 0.058863677 -0.02816203 -0.062595285 0.051822435 0.011096482 0.06239416 -0.026373487
0.0013975498 0.09138064 0.075285204 -0.08185262 -0.057016596 -0.01717933 0.054921024 -0.05454018
-0.08451503 0.075952046 -0.088471904 -0.11034457 0.028564716 -0.004186068 0.005119065 0.09494375

lstm.weight_ih_l0_reverse f4 [256, 72]
00000000: dd90 dcbd 1057 993d 1e2f 0b3d 6990 3c3d
00000010: 1155 9cbd 9748 eb3c d901 b9bd 5cb5 383c
00000020: 3dd0 80bd 7814 1b3c 14b7 c0bc 2215 553d
00000030: e7a2 80bd 1aae dbbd 138d ddbd db10 a53b
00000040: cd6b 85bc b259 f9bd 67f1 babd 089d 633c
00000050: e5e8 b23c 6a89 b8bd 6a20 21bd c7be f0bd
00000060: 568a 87bd be43 81bc 34be 57bc 38c3 983d
00000070: 30ea 49bd 2dad b5bd 5a8d ef3d 6b4d b93d
00000080: 315b de3d 6a98 803d 585f e0bd 0011 d4bd
00000090: ffc6 743d 7a7a 463c 9fab cfbd 2ed4 a1bd
000000a0: 414f 9f3d c003 36bd 9eb7 fdbc e413 843d
000000b0: c24d ba3c 6c26 9b3d 4647 d1bd ad80 d0bd
000000c0: 8d09 24bd a3e1 3b3c 8f59 a4bd 9802 3c3d
000000d0: b43d 4c3d 9b7c f1bd 692b f63d ec03 c9bd
000000e0: a7d0 19bd 1efd e3bd c188 08bd 4037 00be
000000f0: c066 8d3d 07d2 823d f2ec fb3d 5926 f43d
00000100: 28e0 1bbd 9c6f 8b3c f35c 683d efcf f4bc
00000110: dbee d8bd 7a70 613c 92ed cabc e306 ccbd
00000120: 2996 fb3c d43a d03d 2748 0d3d 1521 043e
00000130: aa57 463d 22ef 953d bee1 663d 50d0 37bd
00000140: 8b80 d03d 4466 eabd 6c18 983c e334 06bd
00000150: 266a 22bd f135 e3bd 6a4d 69bd 0c0a bcbd
00000160: 518a a0bc 5c88 c5bd 1302 80bd 3838 b5bd
00000170: 1aca 91bd 334d 94bd fecd 92bd cbbc 83bd
00000180: c8a1 9a3d 044f debd 2679 c83d ad34 683d
00000190: 207e 563d 5f45 bbbd e174 b63d ce5f 87bd
000001a0: 5b0d a0bc ef26 7bbd 1099 6b3d f40e b7bd
000001b0: c98c dabd fe7d febc 32bf 953d 83f4 bd3d
000001c0: fa8a ed3d 7630 1cbd 7bf6 1bbd fd75 64bc
000001d0: b74c 053e e071 8fbd faad 833d a954 f73d
000001e0: b206 b7bd c607 00bd 020d cc3d 5f93 c3bd
000001f0: d19b d4bb 30df c7bd 5b37 cb3d b7c8 0dbd
00000200: 2e62 78bd e24e 82bd a614 a3bd e00e 993c
00000210: b6e2 c13b 404c 91bd 31d4 3abd 5dce df3d
00000220: d4a0 e2bd cbdf 5f3c 5937 cfbd 612c efbc
00000230: d8d9 603d f49e d6bd 3adf e93d 0fd3 24bc
00000240: bbbe 453d 373a 993d 1d29 793d bf7e 93bd
00000250: a5b5 b03d 5a64 853c 6220 143d 1de5 febb
00000260: b66b 633d dd4f ab3d cb71 8e3c c7f1 7b3d
00000270: a3d8 88bd 54a0 07be 71a7 a33d e0f3 e03d
00000280: 9ab8 d1bc b600 9c3d 6034 ee3d 37e3 d13d
00000290: d053 d03b e5d7 08bd 766e ec3c c376 4d3d
000002a0: 7ce4 31bd 6a2d c93c a194 afbd ad3e dcbd
000002b0: 4bcc d43d dc64 d5bd f04f 48bd 869d 43bd
000002c0: 08fe aebd 637c 613d 0b4c 04be 95a1 41bd
000002d0: 3867 0dbd 36e8 5cbd 3ad7 793c 5406 cb3d
000002e0: aea5 183d f752 debd df73 393d e4f2 c9bd
000002f0: fb19 d53c 2d41 793d 4fb1 14bd 3be0 c33d
00000300: 5244 5c3d 3a86 52bc 62d1 e2ba 4948 b3bc
00000310: 380d ecbd fd62 ac3d 781a 743d 78d3 bcbc
00000320: 6119 90bc 3dae 92bd 9870 5cbc dff9 40bd
00000330: 76c6 083c bec6 c4bd 0599 6e3d a47d 903d
00000340: 8a83 7bbd ee5a 01bd ee14 6eba 1134 773d
00000350: b27e 7cbd b63e d43d 940e 64bd 7f2e 9fbd
00000360: eb34 65bd 26ee ff3d e832 9e3c 6823 b43c
00000370: 99e3 bf3d 868c 94bb 8c45 b8bd fca8 c03d
00000380: 7d8b 223d a565 c9bd 9cfb e2bc c955 26bb
00000390: 28a8 8e3d 052e cabd 225f b2bd 1817 b9bd
000003a0: c609 3bbb 416d c23d ee3f f8bc 0e90 83bc
000003b0: 502b 433c 660f 8f3c 565e f73d 0a19 843d
000003c0: 7465 f53d aa38 cdbd a621 4bbd 0e37 963d
000003d0: 21cb 893d 7c64 17bd 9037 e4bd edf5 cebc
000003e0: 1f8c 14bd 84fb 22bd 1b53 6cbd 51b9 9e3d
000003f0: 44cd 4cbd 58e2 893d 42a7 e63d 9286 b6bd
-0.10769818 0.07487309 0.03398048 0.046036158 -0.07633413 0.028721137 -0.090335555 0.011273708
-0.06289718 0.009465329 -0.023524798 0.052022107 -0.06281071 -0.107265666 -0.108179234 0.0050374097
-0.016286755 -0.12175311 -0.09128075 0.01389242 0.021839568 -0.09010585 -0.039337553 -0.11755138
-0.06618182 -0.015779372 -0.013167907 0.0745911 -0.049295604 -0.08870921 0.116968825 0.090479694
0.10857237 0.06279071 -0.109556854 -0.10354805 0.05976009 0.012114162 -0.10140156 -0.07901798
0.07778788 -0.04443717 -0.030971345 0.06449106 0.022742156 0.07575688 -0.102186725 -0.10180793
-0.04004817 0.01146737 -0.080248944 0.04590091 0.049863532 -0.11791345 0.120199986 -0.09815201
-0.037552502 -0.11132263 -0.033333544 -0.12521076 0.06904364 0.06387716 0.12301053 0.11921377
-0.03805557 0.017020993 0.05672927 -0.029884307 -0.10592433 0.013759727 -0.024771485 -0.09962251
0.03071125 0.101674706 0.034492638 0.12903245 0.048423447 0.073210016 0.05636763 -0.044876397
0.101807676 -0.11445287 0.018566333 -0.03276528 -0.039652012 -0.11094273 -0.056958593 -0.09181604
-0.019597204 -0.09645149 -0.062503956 -0.088486135 -0.07118626 -0.07241287 -0.07168196 -0.06432494
0.075503886 -0.10854915 0.09788732 0.05669086 0.052366376 -0.09144091 0.08909012 -0.0661007
-0.019537618 -0.061316427 0.05751902 -0.08938399 -0.10671384 -0.031065937 0.07311858 0.092751525
0.11598773 -0.038132153 -0.03807686 -0.013944146 0.13017546 -0.07004142 0.06429668 0.120766945
-0.08936824 -0.031257413 0.099634185 -0.09549593 -0.0064883013 -0.097593665 0.099226676 -0.034615245
-0.060640506 -0.06362702 -0.07962923 0.01868385 0.0059169186 -0.07094622 -0.045612518 0.109280325
-0.11065832 0.013664196 -0.101179786 -0.029195966 0.054895252 -0.10479537 0.1141953 -0.010060086
0.048277598 0.07481807 0.060830224 -0.07201909 0.08628396 0.016283203 0.036163695 -0.0077787773
0.055522643 0.08364842 0.017388245 0.061509874 -0.06681945 -0.13244754 0.07990921 0.109840155
-0.02560072 0.07617323 0.116310835 0.10248416 0.0063576475 -0.033409018 0.028861266 0.050162088
-0.04343079 0.024557788 -0.085732706 -0.10754142 0.10390528 -0.10419628 -0.04890436 -0.047757648
-0.08544546 0.055050265 -0.12919633 -0.047273237 -0.034522265 -0.05393239 0.015249068 0.09913316
0.03726738 -0.10855668 0.04527652 -0.09860781 0.026013365 0.060853172 -0.036301907 0.09564253
0.053776093 -0.012849385 -0.0017304833 -0.021885054 -0.11525959 0.08417318 0.059595555 -0.023050055
-0.017590227 -0.071621396 -0.013454579 -0.047113296 0.008348098 -0.096082196 0.0582514 0.07055214
-0.061404742 -0.031580858 -0.0009082098 0.06035239 -0.061644264 0.10363524 -0.055677965 -0.0777254
-0.05595867 0.12496595 0.019311383 0.02198954 0.09369583 -0.0045333533 -0.0899764 0.09407231
0.039683808 -0.0983384 -0.027707867 -0.0025380722 0.06965667 -0.09872059 -0.087095514 -0.09037608
-0.002853976 0.09493495 -0.030303922 -0.016059902 0.011912182 0.017463397 0.1207854 0.06450088
0.11982241 -0.100205734 -0.049592637 0.073347196 0.06728197 -0.036961064 -0.1114341 -0.02526375
-0.036266442 -0.039790645 -0.057696443 0.0775019 -0.050000444 0.06732625 0.11262371 -0.08912386

lstm.weight_hh_l0_reverse f4 [256, 64]
00000000: 7373 1cbc 6698 ffbc 232b f03d 159e fb3d
00000010: 7ae9 cdbc 9a95 863c d439 8b3d ce39 d63b
00000020: a889 9b3d 1516 4b3d 59a4 a3bd 6236 debd
00000030: 877a 5cbd 5870 5abc 5e4b 5d3d 8ba6 8ebd
00000040: f37b 8f3d 2d80 67bc 0049 f1bd 6e7e d23c
00000050: 7ec9 46bd 76b5 f0bd 74bb 12bd 6dd1 e73d
00000060: bef5 bfbd 1e3c 31bd eb05 9b3d cb0a 803d
00000070: d89f 403d 8d6e af3d 0dd3 c1bd 4cd7 153d
00000080: ddfc 353d 46b9 d6bd 95e9 633d 8023 75bd
00000090: f39a 893d 7828 2f3d 8ef1 5a3d 0212 01be
000000a0: e0eb e5bd 52e9 e6bc 333e a0bd 0e2b b5bc
000000b0: 2263 71bd 1c1c 0bbe 4054 2bbc 0829 e43d
000000c0: 3337 033e dd43 bcbc efca 89bc 6385 613c
000000d0: adf2 09be f3b4 453d 9f3f c1bd f63f e6bd
000000e0: be43 033e caeb c53b 33b4 3f3d 4b24 f93d
000000f0: 4458 ae3b 5758 8abc 3d8e 15bd 7824 23bc
00000100: 78c9 de3d 6d8a 933c d191 f8bc 4bf3 2d3d
00000110: af57 a83d 499b 05bd 9804 a9ba 302d e63b
00000120: 87fe b4bc 41e5 1abc 1b85 df3d 4593 5ebd
00000130: 4332 513d 1bc0 74bc fe5a c9bd 986b 863d
00000140: 88b0 55bd e3f2 05be 3962 323d f50a c13a
00000150: e7e8 993d 3e07 e03c 85e8 de3d 6dc8 03bd
00000160: 35c9 d93d 75fc 91bc 7a06 8ebd a4d7 2bbd
00000170: 4f30 bd3d ce6d 7bbd b698 8d3c 695c 33bd
00000180: 7099 dabd 94e3 80bd 535f b23d 92d3 f03c
00000190: d6f8 de3d 7062 9d3d c241 24bd 9d13 963d
000001a0: 3762 98bd b554 303b 595d 8e3d 24be eb3a
000001b0: a357 043e 9433 dd3d c722 993d 894e b6bd
000001c0: 821e 703d 9b9d 843d 6528 dfbc c2c6 c5bd
000001d0: 7b12 15bd f3b6 9dbd 1c82 6cbc 2f7a a1bd
000001e0: 1f35 743d 776f e1bd 0772 c8bb 2a10 13bd
000001f0: f778 d93d 3e09 cdbd 105a d73d a345 79bc
00000200: 1ad7 d93c 5da5 413d 0cd5 cfbd c119 ae3b
00000210: 3b0e 103c 39dd 1abc 8f9e 0fbd 507c 463d
00000220: e5df 013d 7417 54bd 6c91 683d e701 03bd
00000230: a711 03be 3d60 a6bc 2b6a e63d 0b56 dc3d
00000240: dfbe 8c3c 7b5b 6bbd fd03 5fbc 6412 913d
00000250: eee5 853d 9dda 8fbd e8f7 5c3d b3fc f53d
00000260: fe3b 47bd 8526 503d 7f87 45bd 648f 6ebd
00000270: e4ac 30bc 19e7 79bd 9f4f a0bd b97e 74bd
00000280: b6ba 8a3d 506f 853d 6466 95bd 3850 4abd
00000290: 2103 903d e804 fdbd eebb 03bd 9089 803c
000002a0: 8fb8 a0bc 9e11 19bd 39bb 82bd 64ff e2bd
000002b0: 68ae 8b3c 9041 2c3d 7c11 1bbd e939 68bd
000002c0: 3fa0 953d 77c7 e3bd 9e5b 10bb 20f2 283b
000002d0: 3ff0 cc3d fe3e debd ad12 9a3c b360 97bd
000002e0: ab0b 6d3c bdfb 833d 3296 1f3d ca33 d8bd
000002f0: 5c95 8f3d 9466 e1bd aafa 26bd 31bb bd3d
00000300: 4fef 323c 9cc3 e3bd 7329 c4bd f81e 93bc
00000310: 3fec aa3d dfad 873c c0d4 f03d 2f95 9b3c
00000320: 89aa 853d 90d3 00be 210e 903d 0f9a e2bc
00000330: 8338 06be 85af bdbd 11e9 3dbd 808a c93d
00000340: 83a9 dd3d d47e ddbc e1cb 823d 251c 50bd
00000350: 278a cebc 838f 263d fce5 9fbd 9404 dcbd
00000360: 6f33 c1bd 9d0a a13d 87a7 cdbc 8f8f 983b
00000370: 22d1 9cbd 247e 0abc 2f91 1ebd e586 8d3d
00000380: 2241 d93d 47d9 0d3d d84e 9d3d f22e 80bc
00000390: e5db 123d c727 b5bd 61e8 933d efa3 a2bc
000003a0: 0f9e d93d 9444 b0bd 2ea1 b73d f3a6 563d
000003b0: 1e7c 8239 1b28 013d 4c73 eb3d bec2 ffbc
000003c0: 0c5d f23c a598 963d 4da3 f0bc 99b3 b73d
000003d0: 771d 62bd 14fe a3bd 911c b4bd 8c6e 9abc
000003e0: dcc8 553d 9018 56bd 311c 803d c3b7 cc3d
000003f0: 1768 053d e521 583d 37ca b8ba ac41 7abd
-0.00954901 -0.031200599 0.11726978 0.12286011 -0.025135744 0.016428757 0.06798139 0.0065376526
0.07594615 0.049581606 -0.07990331 -0.108502164 -0.05382779 -0.013332449 0.054026954 -0.06965359
0.07006063 -0.014129681 -0.11781502 0.025695052 -0.048532 -0.11753361 -0.0358233 0.11319242
-0.093730435 -0.043270223 0.07569488 0.062520586 0.04702744 0.08566008 -0.09464083 0.036582276
0.044430602 -0.10484557 0.055642683 -0.05984831 0.06719007 0.042763203 0.05345302 -0.12604526
-0.1122663 -0.028187428 -0.078243636 -0.022115257 -0.05893243 -0.13584942 -0.0104570985 0.111406386
0.12814026 -0.022981578 -0.0168204 0.013764712 -0.1347148 0.04826827 -0.09435963 -0.11242668
0.1281881 0.006040071 0.04680271 0.121651255 0.0053205807 -0.016887827 -0.036512602 -0.009957425
0.10878271 0.018010342 -0.030342968 0.04246835 0.08219849 -0.032618795 -0.0012895046 0.0070244297
-0.022094024 -0.009454072 0.1091406 -0.054339666 0.051073324 -0.01493838 -0.098318085 0.06563491
-0.052170306 -0.13080935 0.043550704 0.0014727997 0.07515126 0.027347203 0.10884193 -0.032173563
0.1063408 -0.017820576 -0.06934829 -0.041953698 0.0923773 -0.061384015 0.017284732 -0.0437893
-0.10673797 -0.06293407 0.08709588 0.02939776 0.108873054 0.07684791 -0.040101774 0.0732796
-0.07440608 0.0026905958 0.069513984 0.0017985743 0.12924056 0.10800853 0.074773364 -0.08901698
0.058622845 0.06475373 -0.027240941 -0.09657051 -0.036394577 -0.077009104 -0.014435317 -0.07884633
0.059620973 -0.11007588 -0.0061171087 -0.035904087 0.10618775 -0.100115284 0.10515225 -0.015214357
0.026591826 0.047276843 -0.10148057 0.0053131287 0.008792455 -0.009452158 -0.035063323 0.048458397
0.031707663 -0.05178018 0.05677931 -0.031984236 -0.12799703 -0.020309562 0.11250719 0.10758599
0.017180858 -0.05746029 -0.013611791 0.07083586 0.06537996 -0.07024119 0.05394736 0.12011089
-0.048641197 0.050817985 -0.048224922 -0.058242217 -0.010783408 -0.061011408 -0.078276865 -0.059691165
0.067738935 0.06515372 -0.0729492 -0.04939291 0.07031847 -0.123544514 -0.032161646 0.015690595
-0.019619254 -0.037370317 -0.06383366 -0.11083868 0.017050937 0.042054713 -0.03785847 -0.056695852
0.07305955 -0.11122029 -0.0022027264 0.0025779083 0.10006761 -0.108518586 0.018807733 -0.07391491
0.014468114 0.064445 0.038961597 -0.10556753 0.0701091 -0.11005893 -0.040766396 0.092642196
0.010921313 -0.11121294 -0.09578218 -0.017959103 0.083458416 0.0165624 0.11759329 0.018992035
0.065266676 -0.12580705 0.07033945 -0.027661351 -0.13107495 -0.09261993 -0.046364848 0.0984087
0.108233474 -0.027038015 0.06386543 -0.05080809 -0.02521236 0.040664207 -0.07807538 -0.10743061
-0.09433638 0.078633524 -0.025104297 0.0046557854 -0.076570764 -0.008452926 -0.038712677 0.06910495
0.10608126 0.03463104 0.07681054 -0.015647385 0.03585424 -0.088454776 0.07222057 -0.01985356
0.106258504 -0.0860683 0.089662895 0.05240531 0.00024888007 0.03153239 0.114966005 -0.03122079
0.029585384 0.073533334 -0.029374743 0.089698024 -0.05520388 -0.08007446 -0.08794511 -0.018851541
0.052193508 -0.05226952 0.06255377 0.09995987 0.03256997 0.0527667 -0.0014098351 -0.061097786

lstm.bias_ih_l0_reverse f4 [256]
00000000: e8f8 ffbd 5758 c73d e577 50bd 8ef3 ba3d
00000010: d575 7c3c d6bf ae3b 7d27 eebd 2052 9cbd
00000020: 1933 8d3d 4e5d 1ebd 5c74 cc3d 2f34 d23d
00000030: 125f ff3c b26a 043e 69bc 523d 3530 8f3d
00000040: dc18 02be 9b8f 9fbd a8e5 e63b c0e8 093c
00000050: 8e30 20bd 18a7 dd3d 8559 89bd bcad 0b3c
00000060: e7a6 51bd ba7b f83d 7549 093e f4ff ccbc
00000070: 3520 89bd e876 4d3d 42ac d73d fbde b8bc
00000080: a51a 473d 2843 793d 9c56 f6bd 3315 35bd
00000090: 04f7 f0bd 4104 ddbc 7638 f1bd 644c 1a3d
000000a0: a3d1 2c3c 5532 95bd e498 23bd 7c55 6cbd
000000b0: 5005 853c d33c b1bc 574d dc3d 9aef 933d
000000c0: 08d8 2ebd ca61 b9bb a0a0 74bc 98d5 72bc
000000d0: ac14 883d c5a3 8dbc 901b f0bd de04 40bc
000000e0: c8ab c9bc c2b2 47bd 2215 823d 642a 99bd
000000f0: c401 f6bd 7be1 473c 21e9 9c3d 090e b1bd
00000100: bfa4 c43c be40 033d cc14 a83d 6a12 cdbd
00000110: 9a0c 13bc 5c6b ea3d db71 15bd 5ac5 903d
00000120: 3981 e23d 09f3 d63d 30ae 903d fd42 7f3d
00000130: c9c1 dabd 82fc 95bc 4b4f 08be f53c e2bd
00000140: 80b7 793d 1192 3ebc 6a22 cb3d 2acc 93bd
00000150: 7103 853d 03ea a7bd bdc4 923a 06c9 713d
00000160: 7c1f 1c3c c1e2 783d 3b0f a13d 74bd a63d
00000170: d35d e6bd 9ef9 823c 7dee f73d 7f6b f13c
00000180: d620 41bd a6cd a73d 2915 05be 322a b5bd
00000190: 5d1d f8bd 6c1e 92bc 372c c7bb 3ba8 2d3d
000001a0: 756a acbd 7495 973d cdb5 f3bc 0563 b23d
000001b0: 7ddc 8f3c c72f a83c 97eb ea3d 9096 b53d
000001c0: 561a 81bc b500 b5bc 1f29 ff3d 58b1 903d
000001d0: 0c26 ca3d 3d40 043e e5dc d4bd 49c0 b0bd
000001e0: 4aac 3fbc 800c bcbd 067e b03c 7ef3 c0bd
000001f0: abc1 b2bd 70dc b6bd 3d34 76bd c6a0 dcbb
00000200: 8523 413d 9a61 8dbd 76ee 44bd 1baf bc3d
00000210: 0f15 d03c 6125 da3c 00fa 53bd 0479 f0bc
00000220: faec 31bd fcf5 9abd 3185 01bd 7e1d 423d
00000230: b19c 04be a182 913d fe9c 793d c737 493d
00000240: 2680 ac3d 861d ca3d aa69 5bbd 04fe 373d
00000250: 4c6b 9a3b 78e0 923d 1fd1 6b3b a926 203d
00000260: 7a72 e1bd c135 4d3d d275 a2bd 42e7 c03b
00000270: b185 08be 0ba3 e83d 59e6 2c3d 3c59 393d
00000280: 5c13 32bd 17d0 9dbd 2296 febc a965 e13b
00000290: fe9a 60bd dea4 863d ecba 023e 1b73 b9bc
000002a0: eee2 493c b76e c33d 5eff c9bd c0f1 1dbd
000002b0: 6070 b4bd 2f6a 6c3d 4d0e 8a3d 5dc6 5c3d
000002c0: 106d 1c3b 1837 073e 49a7 09bd 5811 9d3d
000002d0: 1dfb a0bb 10f7 29bb f267 c8bb a12b f5bd
000002e0: f4cf 3ebd dd38 9dbd 6e75 b63d fbd3 ef3c
000002f0: c136 c13d daa9 b3bd 3ddb ab3d 844c 3a3d
00000300: 4615 673d aa63 4ebd 18e9 f5bd cc11 f53c
00000310: 8f50 a73c 8f50 c6ba 7abf 9cbc 36bf 4fbd
00000320: 9745 8c3d 5cec 1fbb dbe2 d5bd 32ba 2b3d
00000330: 0837 9a3d bf3e 213d f70f aa3d 6c57 b43d
00000340: 78df bc3d 8068 873d 4361 3f3d 647f c9bc
00000350: 4eab d5bc 3020 ea3c 055f f83d 31bc eabc
00000360: 2b3d 553c 7149 f2bd 8357 14bd 8df6 e0bd
00000370: bc26 3a3d 3442 073c 47a2 29bd df1d 54bd
00000380: 5a7c f13b 5076 253d d614 2bbd 6e68 023e
00000390: cd10 513d f7a6 27bd 39ab cabd 5c11 ac3d
000003a0: ca3b 39bd da70 66bd 3fa6 b4bd 8bcf a2bd
000003b0: a420 a43d 95b0 5d3d 350b b93d 5f19 d83a
000003c0: fb88 d1bd 6d7f 9b3d 43a8 cabd ec2d 49bd
000003d0: 00ce f83c dce4 e1bd 4994 b63d 5e90 4d3d
000003e0: 5cee 093d 81b1 e1bd cb27 af3d cfee 913b
000003f0: 781c 973d 9a22 7f3d 4257 d3bb 793a be3d
-0.12498647 0.09733646 -0.05089559 0.091284856 0.015408953 0.005332927 -0.116286255 -0.076328516
0.06894512 -0.0386632 0.09983131 0.102638595 0.031173263 0.12931326 0.051449213 0.06991617
-0.12704796 -0.077910624 0.00704642 0.008417308 -0.039108805 0.10822886 -0.067065276 0.008525308
-0.05118456 0.12132974 0.13406928 -0.025024392 -0.06695596 0.050162226 0.105309024 -0.022567263
0.048609395 0.06085506 -0.12028238 -0.04420967 -0.117658645 -0.026979567 -0.11778347 0.037670508
0.010548028 -0.07284991 -0.03994073 -0.05769871 0.016237885 -0.021635449 0.10756939 0.07223435
-0.042686492 -0.0056574093 -0.014930874 -0.0148214325 0.06644568 -0.017290005 -0.11724007 -0.01171991
-0.024618044 -0.04875446 0.06351687 -0.074787885 -0.120120555 0.012199755 0.07661653 -0.08645255
0.024004338 0.032044165 0.08207092 -0.10013278 -0.008975172 0.114462584 -0.036485534 0.07068892
0.110598035 0.10495574 0.07064474 0.062319744 -0.10681493 -0.018308882 -0.13311498 -0.11046783
0.060966015 -0.011631505 0.09918673 -0.072166756 0.06494797 -0.08198931 0.0011197549 0.0590296
0.009528991 0.060763124 0.07864233 0.08141604 -0.11248364 0.015988167 0.12106035 0.029470203
-0.047150455 0.08193521 -0.12996353 -0.08845939 -0.121149756 -0.017836772 -0.006078269 0.042396765
-0.084187426 0.07401553 -0.029749775 0.08710293 0.017561192 0.020530595 0.114707164 0.08866608
-0.015759628 -0.022095064 0.12459015 0.07065076 0.09870538 0.1291513 -0.10393695 -0.086304255
-0.011698792 -0.09182072 0.021544468 -0.094214424 -0.087283455 -0.08928764 -0.060108412 -0.006733033
0.047153015 -0.06903382 -0.048078977 0.09213086 0.025400667 0.026629152 -0.05175209 -0.02935458
-0.04343889 -0.07566449 -0.03162116 0.047391407 -0.12950398 0.071049936 0.060940735 0.04912546
0.0842288 0.098689124 -0.053567566 0.044919983 0.004712498 0.0717172 0.00359828 0.03909937
-0.11008163 0.05010009 -0.07932629 0.005886943 -0.13332249 0.11359223 0.042211864 0.045251116
-0.043475494 -0.077057056 -0.031077448 0.006878574 -0.054835312 0.06574415 0.12766618 -0.022637894
0.012322171 0.095426016 -0.098631606 -0.03856063 -0.08810496 0.057718452 0.06741009 0.05390011
0.0023868717 0.1320461 -0.0336068 0.07669324 -0.0049127475 -0.0025934614 -0.006115907 -0.11971212
-0.04658504 -0.076768614 0.08909117 0.029275885 0.094342716 -0.08772631 0.08391426 0.045483127
0.056416772 -0.050388016 -0.1200735 0.029915713 0.020424156 -0.001513021 -0.019134272 -0.050719462
0.06849211 -0.0024402356 -0.1044366 0.041925617 0.07530028 0.03936648 0.08303826 0.08805737
0.09222311 0.06611729 0.046723615 -0.024596877 -0.026082661 0.028579801 0.121274985 -0.02865419
0.013015072 -0.11830414 -0.03621627 -0.10984526 0.045447096 0.00825553 -0.041414525 -0.0517863
0.00736956 0.040396035 -0.041767918 0.1273515 0.051041413 -0.040930714 -0.098959394 0.084017485
-0.045223035 -0.056259967 -0.088207714 -0.07949742 0.08014038 0.05412348 0.09035341 0.0016487053
-0.10231205 0.07592664 -0.098953746 -0.04911606 0.030371666 -0.110299796 0.08915002 0.050186507
0.033674583 -0.11020184 0.08552512 0.004453517 0.07378477 0.062288858 -0.006449611 0.092884965
